layers/layer5.npz (npz, 1596 bytes, 2 tensors)

weights f8 [16, 8]
000000 80 f6 c0 3d f3 ac ff bf 93 bb b1 81 92 7c f0 bf
       -1.9797241604095746 -1.0304131570989952
000010 d1 0c 70 bf 0c 7c eb 3f f2 6c 4f 75 88 48 e6 3f
       0.8588927973763935 0.6963541308608951
000020 47 05 f7 27 29 22 d7 bf 8f c8 e1 6f 25 45 08 c0
       -0.36146000769447933 -3.033762811735023
000030 28 cc 8c f0 9e 2f e1 3f fd 68 2d cd 56 a4 ee bf
       0.5370630930177684 -0.9575609214182631
000040 e2 e7 d2 f7 07 56 fe bf 1c 77 13 39 2c 5e a3 bf
       -1.8960036926860018 -0.03782785603264768
000050 49 47 10 47 17 e9 db bf a6 1d 48 40 2d b0 fa 3f
       -0.4361017412166928 1.6680119048122406
000060 07 64 76 f0 f5 a1 d1 bf ab 0f ab ae 52 af ba bf
       -0.27551029665625076 -0.10423771633492034
000070 28 5c 64 39 6b bf e7 3f a8 9c f6 4c 8a 76 bb bf
       0.7421165581644162 -0.10727753046977517
000080 b0 7a a2 46 cf c1 00 40 37 08 2e 34 39 4a 87 bf
       2.0946336286864025 -0.011372038750554576
000090 32 22 65 0e 7d 89 cc 3f 46 d7 5e cd 61 45 eb 3f
       0.22294581606753777 0.8522194872991598
0000a0 8b fe d0 0f a2 8f c9 bf 75 aa 6c ba 74 49 e3 bf
       -0.19969583294185997 -0.6027167931654974
0000b0 3b 23 92 87 8c 92 ee bf ab 74 c0 f2 54 04 de 3f
       -0.9553892753475347 0.46901439386585747
0000c0 89 d7 61 cd e9 6c ed 3f ec af 62 fd 2f bc d0 bf
       0.9195450793620107 -0.2614860510318511
0000d0 e4 4f 44 ee aa eb f0 3f dc 0b 9b 0d 62 e8 fb 3f
       1.0575360591219516 1.7442341357680027
0000e0 04 a9 25 ba dd 1e c7 3f d6 eb 8d 26 1a e4 e2 3f
       0.1806294592782437 0.5903445008292418
0000f0 19 f8 1b 88 ae b4 08 c0 6b 65 d0 ff fb 3e f5 bf
       -3.0882235177550794 -1.3278770439850074
000100 8f a0 4a 10 da 97 05 40 be 19 31 53 8b d3 ca bf
       2.6991463921331795 -0.2095808178148228
000110 ae ef 1a 91 85 a7 e7 3f cb bd db 95 d7 27 ec bf
       0.7391994318090747 -0.8798635413094699
000120 52 ea 8e 27 f3 88 be 3f 18 89 c8 61 ba e5 ec 3f
       0.11927718845155624 0.9030429754095932
000130 a3 56 5e b7 3a e4 f8 bf 49 26 be 1d b9 89 f0 3f
       -1.555720058711281 1.033623806173994
000140 d8 a1 fe 62 91 be 06 40 49 49 64 48 65 f4 eb 3f
       2.8430507406194288 0.8735834516431079
000150 f8 8f 93 17 9f 90 fd 3f 28 28 09 2d 83 ff 09 c0
       1.8478079720453007 -3.249761916963525
000160 c6 23 d8 f0 38 2e f0 bf dc fd 2c 64 2b c5 cc 3f
       -1.0112847717266376 0.22476713553804373
000170 ec a1 dc c7 c5 01 d9 3f d3 a4 c6 c2 69 db 02 40
       0.39073318975218174 2.357135316550378
000180 ea 6d d2 ce 3a 9c e7 3f 07 99 3a 5f 8e 64 f6 3f
       0.7378210105411516 1.3995498390082177
000190 50 73 94 23 60 a1 f2 bf 84 0e 17 2f a5 56 09 c0
       -1.1643983259047737 -3.1673072508727405
0001a0 34 9b e9 ff 41 7d 04 c0 21 9b c6 38 7a f8 00 40
       -2.561161040608022 2.121326869545911
0001b0 39 81 27 11 70 84 02 40 62 d1 4c 92 44 6d 0b 40
       2.3146668758564855 3.4283534459774936
0001c0 ca f3 0e 38 4e 7e ee 3f 77 d0 19 e7 aa 78 01 40
       0.9529181570902605 2.1839197211029915
0001d0 24 70 66 e9 fc d0 d8 bf 8d fb 16 f0 65 1e fa bf
       -0.38775561135276093 -1.6324214342600698
0001e0 76 61 b9 2e 99 ca f2 bf c4 10 2e 83 19 31 09 40
       -1.1744624924814082 3.1489744423325607
0001f0 fa 5e 9c c6 f2 95 90 bf 2e 1c 3d e9 cd b9 08 40
       -0.016197007534258547 3.090724775483543
000200 8e 76 f5 99 c4 89 ea bf c5 fd f4 e6 8b 74 ec bf
       -0.8293173796661948 -0.8892268668059208
000210 9c fa 94 c1 cd 1f d1 bf a3 70 a0 1d bf 4b ec bf
       -0.26756614593970496 -0.8842464045187807
000220 62 81 4d 42 9f 6e fc 3f 33 12 c1 0a bd 90 de 3f
       1.7770073499633203 0.4775841336270645
000230 34 74 06 73 57 cb d6 3f 44 6a c0 66 bf d0 d8 bf
       0.35616098626070714 -0.38774094614351307
000240 66 0d fc 7a b1 72 f6 3f 45 d3 51 3d 92 dc d1 bf
       1.4030012897572646 -0.2790876005959045
000250 50 4f a3 f3 40 83 db bf 36 7b b0 b8 dc 2c f1 bf
       -0.4298860911633158 -1.073452683871165
000260 d0 7d 06 75 6e 07 03 40 16 93 80 aa ba 99 f1 3f
       2.3786286490064654 1.1000315342182083
000270 a0 38 00 c8 53 ca db 3f 22 8b c9 ee 85 58 05 c0
       0.43422407656988504 -2.6682242064720336
000280 fd 2d f5 a1 b5 9a df bf 64 9c d7 28 b6 1c f6 3f
       -0.49381771866021024 1.3820096583747494
000290 73 30 32 0a 91 61 ef 3f 20 d4 b8 17 18 0b 03 c0
       0.9806599806920658 -2.380417046859762
0002a0 82 de d0 89 28 c9 05 c0 4d 4d 10 1f d2 53 0c 40
       -2.7232218520037472 3.5409281184053385
0002b0 f4 90 76 ad f3 aa f7 3f 12 5c fe 96 c4 a6 0b 40
       1.479236295309474 3.456429652821961
0002c0 d5 9a dd 73 61 d2 ce 3f 3b 9d 03 4c 36 d3 e1 bf
       0.24079530866148127 -0.5570327267313709
0002d0 0f a3 30 33 ed 7f ce 3f 78 c8 97 d9 9d 93 aa bf
       0.23827900886069428 -0.05190747529185641
0002e0 b8 c1 17 30 86 d1 da 3f 3b 2a f6 69 f8 80 e7 bf
       0.4190383405357596 -0.7344934529840609
0002f0 1b 28 11 af 20 1c 06 40 7c 2d 36 9f fb 81 f5 bf
       2.763734214507179 -1.3442341059879643
000300 8c 3e 1d db 24 b5 f0 3f 14 37 d6 6f 36 6f d3 3f
       1.044224601664527 0.30366288110313744
000310 0e d2 ff 26 2b 44 b2 bf 13 d6 4d 2c 45 40 05 c0
       -0.07135266973620721 -2.6563819371465427
000320 96 40 9d 37 21 2e 00 c0 dc 3f 76 fc f0 1d fd 3f
       -2.0225242943634596 1.8198099004548487
000330 b5 2e 8d 60 3e 8a d0 bf 14 f6 83 89 f2 f9 03 40
       -0.2584377234349902 2.49704463418926
000340 bb c1 2a e9 37 0a 0a c0 98 e6 99 d4 5e 1e 8c bf
       -3.2549894539044693 -0.013729802001069033
000350 64 20 fc bb b1 63 f5 3f af 5b 1a ef b0 cf 05 40
       1.3368394225272136 2.7264116935652605
000360 0f 52 ee c4 12 ce 02 c0 f9 e9 3b 90 f4 8c 08 c0
       -2.3506217370252283 -3.068825842693738
000370 98 87 31 58 a1 2e cb 3f a7 46 ff 99 2d d4 de 3f
       0.2123605423576549 0.4817003253821021
000380 64 57 3e 52 59 2f e2 3f d9 06 17 3c a3 26 00 c0
       0.5682798963850755 -2.018866033032151
000390 c5 c7 ce 5f 6b 73 e3 3f 15 6d 6b bf 3a a6 f3 3f
       0.607839285969242 1.228083369954054
0003a0 0b a5 ed 55 df 6a 03 40 bb 0f f2 0e 7b 93 fc bf
       2.427183791460839 -1.7860060294924398
0003b0 05 77 00 f0 90 40 ed 3f af 35 72 33 d4 89 f5 bf
       0.9141316115889998 -1.3461496362318532
0003c0 e5 6d ce 97 f2 4b e1 bf fa 54 94 b8 04 1f e3 3f
       -0.5405209507911733 0.5975364308420972
0003d0 03 60 d9 4c 03 32 f1 bf db 88 70 a4 e5 be e4 bf
       -1.0747101785582351 -0.6483028613768299
0003e0 71 62 fe 5d 4a f4 b1 3f 30 c2 e8 cc b2 3a d4 3f
       0.07013382715957463 0.31608266840615595
0003f0 3d 2b 0e 78 d0 54 da 3f 1a 43 24 94 c2 e9 e9 bf
       0.41142665599970824 -0.8097851651565151

bias f8 [1, 8]
000000 c1 0b c6 c2 fa 99 8a bf ea 21 8e bb 6a 6d f3 3f
       -0.012989005154627866 1.2142131163001246
000010 1c b5 c7 6e df 79 e9 bf b4 56 71 b2 45 48 d5 3f
       -0.7961270488428087 0.3325361483197
000020 14 8d cd b3 3a ec db bf 02 f7 38 21 66 01 c4 bf
       -0.43629329260711924 -0.15629269239610016
000030 e9 a8 6a 1a 4f b0 f5 bf 16 1a 56 66 75 12 e2 bf
       -1.3555441886806483 -0.5647532461887887
