layers/layer6.npz (npz, 652 bytes, 2 tensors)

weights f8 [8, 2]
0	0xc0038027f04cba63	-2.437576176969104
1	0xc014c6523bc8aee2	-5.193673071025588
2	0x40017657346551f7	2.182783517210051
3	0xc002bc202b3ffc50	-2.3418582323934416
4	0x3fd8c7b5b05ab1a6	0.38718931409928314
5	0x3fe70ab6e6ebb81f	0.7200579176112604
6	0xc004231111608e6b	-2.5171223981467867
7	0x401b36f26a2d2aa9	6.803659113890412
8	0xc01963a0762fc029	-6.347291800178973
9	0x3fdd4e45e95296e5	0.4579024103680765
10	0x3ff166440c12f05b	1.0874672385825963
11	0xc015dd0876271320	-5.465852590689593
12	0xbfd0d16ff91a0ee1	-0.26278304411265024
13	0x3fe2d44026981ee3	0.5884094957154641
14	0x4019c97ddbf76b60	6.446769177414211
15	0xc004032def687150	-2.5015524581669197

bias f8 [1, 2]
0	0x3fd7c081032d958a	0.37112450895650595
1	0x3ffdbf054c0e51e1	1.8591359110770258
