layers/layer1.npz (npz, 4860 bytes, 2 tensors)

weights f8 [16, 32]
0	0x4000e91d2f63a50b	2.113825197437682
1	0xbfef9e6ac2c84002	-0.9880880169239392
2	0xc00722728062c65d	-2.8918199567931837
3	0x400059aa8c79d90c	2.0437823271451006
4	0x3fe78e24649b5fc6	0.7361013379077057
5	0x3ffbc504e5cb5682	1.7356003738727002
6	0xc0004cd045eec101	-2.03750662455434
7	0xbfbc38009dd8d91e	-0.11022952893913326
8	0x3fef7f475de0e43c	0.9842869599880326
9	0xbff019a8c5619cc8	-1.0062644682127928
10	0x3ff8eb6cdae5ec40	1.5574768591602748
11	0x3ffd5e78e09fb8cf	1.8355644964572553
12	0xbffc7d75c478679a	-1.780629889929037
13	0xc00029d7c69abd08	-2.020431090924493
14	0x3fe9fd592552417a	0.8121762970859401
15	0x3ff479235095117f	1.279574694418528
16	0x3fea67a1f3164f15	0.8251504657550607
17	0xbfdb62a06353b2bb	-0.4278946847905833
18	0xbfedae4fac71d783	-0.9275282257137721
19	0x3ff8691ddc65fb88	1.5256632432280828
20	0x4000a3f739c6e1fc	2.0800613893336486
21	0xbff466473bed4e1e	-1.2749702778718368
22	0xbff48773cfef95c7	-1.2830694315429
23	0x3fc0eef9617baaf8	0.13229291210094352
24	0x3fd0e8c31ba6824d	0.2642066736243905
25	0x3ff6b455bab294a3	1.41902707031958
26	0xbff2666982236937	-1.1500029643562593
27	0xbfcceba8a4968572	-0.22594173466226725
28	0x3fea830f0fa2c2f7	0.8284983926187967
29	0x3fd79e65315eb08d	0.36904268094327436
30	0x3fe4dc26d866c899	0.651873991641213
31	0xbfd724150f976a1b	-0.3615772869358424
32	0xbfe43c452130b3e4	-0.6323571823355647
33	0x3ff88c445b09cc43	1.534244876497511
34	0xbfc2bcc10eb79797	-0.1463853189335935
35	0xbff070b9bfbd9202	-1.0275208940375937
36	0xbfe180ed5d77ec54	-0.5469881845050488
37	0xbfed7444626f890b	-0.9204427645275087
38	0xbfdab9075eec8666	-0.41754326124109864
39	0x3fe1de6c3d0f040b	0.5584012215186943
40	0x3fd35453305bb68e	0.30202178690419934
41	0xbf9ce251045e5e7e	-0.028207078830375647
42	0x3ff5aed4822d12f8	1.3551831326487314
43	0x3fc15a36bf27bf4a	0.1355656083464914
44	0x3fe13f6d38c1be88	0.5389925106555475
45	0xbfea2b211d4cffa3	-0.8177648136406684
46	0xbfef19dbddd9cf80	-0.9719065983795048
47	0xbff1913d73999574	-1.0979589954016236
48	0xbffa012b6314b8a7	-1.6252855177258796
49	0xbfece0b5112373ac	-0.9024300894485484
50	0xbfe44b62a93a9709	-0.6342023186923323
51	0xc00614fb98bc2a1f	-2.7602455074713954
52	0xbff80d05f277e8c0	-1.5031794997617425
53	0xbff34789ce3e7fc8	-1.2049654060756314
54	0x3ff2de8b12a52974	1.1793318489386282
55	0xbfe279a55b9d8047	-0.5773493565902833
56	0x4002de606de009c8	2.358582361602405
57	0xc00664ea69718ebb	-2.799275230196
58	0xbfc00902e22d364b	-0.12527500194339533
59	0xbff0f7583edc7250	-1.0603868918907615
60	0x3ff2e94f985b86a8	1.181960673472
61	0x3ff8480b197d75cc	1.5175887103754233
62	0xbfe2b4748c35d5ac	-0.5845282305223711
63	0xc00371990128ad6b	-2.4304676142252695
64	0x3fc6ed9c822fda0b	0.17912632328780406
65	0xc002ff6f112221cd	-2.3747235621014853
66	0xbff57f1c966f0c40	-1.343533122665363
67	0xbfe9a8b1affd7ac9	-0.8018425404842101
68	0x3ff5d3354b65b69c	1.3640644974906655
69	0xc00737ad4fae1f65	-2.9021860337269794
70	0x3fb2d849998d104b	0.07361278532795372
71	0xc00028a1cb806605	-2.0198398493346326
72	0xbfed0368f2763551	-0.9066662536221576
73	0xbfed9d31818b971e	-0.9254386453801293
74	0x3fbeaec2594f6e4e	0.11985411339213067
75	0xbffc095520938c19	-1.7522784492982793
76	0x3ff279b48ce98d43	1.154713201941221
77	0xbfd1ce9a34ed2933	-0.278235007940242
78	0x3fd8676d7090d632	0.3813127135539133
79	0xbfe61823d4190502	-0.69044677186335
80	0x3ffcfcca0007d307	1.811716079825773
81	0x3ffbf56586459f5f	1.7474112744329984
82	0xbff859f24f83ba82	-1.5219596010244065
83	0xbfc7f3fe22945656	-0.18713356674622855
84	0xbff2b51a907373af	-1.1692147867790756
85	0x3fe12063569301d9	0.5352036181357632
86	0xbfcb1bf66776f61f	-0.21179084827410663
87	0x3fe651c15a6d70db	0.6974798933183836
88	0x3ff38c0f9c59bb63	1.2216945750658048
89	0x3fe660cb58ff2c75	0.6993157137125211
90	0x3fd9d53077bacfb0	0.40363704388004873
91	0x3fd7a67bfbad9aa2	0.3695363958162635
92	0xbfeace59271e8c50	-0.8376889957475075
93	0x3ff2ae3e04152afe	1.1675396117668124
94	0x3fb0cbd0cfd637d3	0.06560998033657421
95	0xbff5aa6ad1190df5	-1.3541057746778027
96	0x3fdc2d58e317fded	0.4402677743637174
97	0x40093d69bada2fbd	3.1549868200144986
98	0x40016165d20bb805	2.172557488424902
99	0xbfde820929d6d9df	-0.4766867550455611
100	0xbff91fdf03000799	-1.5702810399238614
101	0x3ff5d203feae0f7f	1.3637733410295991
102	0x40064c59b0ab93fd	2.7872804453240847
103	0x3fb522a835ec9bf2	0.08256007496366616
104	0xbfdd7c300eab02dd	-0.460704817127448
105	0xbfee9576ec54e4fc	-0.9557451835491118
106	0xbff077f998d6d493	-1.0292907686501038
107	0xbfab99edaff23270	-0.05390875599650691
108	0x3fe493b47996524a	0.6430303930997721
109	0x3ff6aa8d15b0acf9	1.416638455130679
110	0xbff127804075665e	-1.072143794814472
111	0xc003e9a266b7bb5c	-2.489079287035038
112	0x3fcc5d9ea9e1b5a9	0.22160704894069497
113	0x3fd5cae29fa7db54	0.3405081328523256
114	0x3fef0c2198ebdbac	0.9702308642143769
115	0x3fdd63b4fa9d8324	0.45921062921665823
116	0x3fe484ed9269d449	0.641226564372695
117	0xc003fd7b28710f1a	-2.4987700614455095
118	0xbff3cd58d93e3ee6	-1.2376335607586326
119	0x3ff5a8c92deac505	1.3537074845920085
120	0xc003a34a3b83bf3b	-2.4547314309674255
121	0x4001cd98c70bb70c	2.2253890562486784
122	0x3fe26d3a99a642ec	0.5758336068120946
123	0x3fecb1a2213bb223	0.8966837548337633
124	0x3ff3ba1ac3d84d13	1.2329356813614296
125	0x3ffe1fa5a5a7a57d	1.882726332749683
126	0xbf8616b92f51f3f2	-0.010785528904529305
127	0x3fb29ad8254ba43e	0.07267523680242591
128	0xbfdd7adac1ad1786	-0.46062344468770566
129	0x3f91a45b07b26a4d	0.017228529305251695
130	0x3ff3d89dc26a8c0e	1.2403848261244579
131	0x3fdcce4fc4dde37c	0.4500922606016997
132	0xbfea706e7d008826	-0.8262245599219156
133	0x3fe5d286ee1b4c79	0.6819491053123691
134	0x4001cab71b8d3d27	2.223982062576073
135	0xc0028801be5490b7	-2.31640957542012
136	0x3fdcdf7a60662871	0.4511400166890161
137	0xbff332d8ca8e4b3b	-1.1999137794816324
138	0x3fc813dd3d53c891	0.18810620779510548
139	0xbffc996b2d03abab	-1.7874557264683328
140	0x3ffd3ff0f05c37d0	1.828110636622558
141	0xc005af2b2b4d99a6	-2.7105315573746394
142	0xbfe841c4f2ddef3d	-0.7580284827704201
143	0x3fda94642304fc09	0.4153070775973338
144	0xbfecf3e221dc3159	-0.904770914204657
145	0x3ff77718f369f00d	1.4665765293457327
146	0x4002b58b0ff35d5f	2.3386441465515158
147	0xbfd6fa41a5c37b64	-0.35902444064952577
148	0x3ff8cbff7dadf41c	1.5498042020183282
149	0x3fc3c0b581a12822	0.1543185122448572
150	0xbfe6ce66b6a1bdd1	-0.712695461943378
151	0xbff269222bed940b	-1.1506673541964598
152	0x3fc84b313816b4bc	0.18979468573289704
153	0x3fe7bbb8bad65208	0.7416652344859935
154	0x3fdc766f90d579e8	0.4447287477868529
155	0x3fa653207c091002	0.043602957860031225
156	0x3ff455762639f99a	1.2708646290990147
157	0xbfa53c8fe82edbb7	-0.041477677433639774
158	0xbff1f0bc4e6717b2	-1.1212733328443218
159	0xbff3a372f6bb9b59	-1.2274045598985224
160	0x3ff3a53a44adae82	1.2278387720824928
161	0x3fec701ed92be77c	0.8886865846281888
162	0xbfc78011e62f0607	-0.18359588374555377
163	0xbff8112f87454b32	-1.504195717240418
164	0x3fcb6297112f2e30	0.21394623126103474
165	0xbfd6d5106e7f523e	-0.3567544058871909
166	0xc002177b91791de0	-2.2614661564909824
167	0x3ff87b43b019bf87	1.5300938490799767
168	0x3fdadeb899b719a8	0.4198438168645233
169	0xbff7f1a292c5c562	-1.4964929326345886
170	0x3fe83e377a37ff16	0.757594813068837
171	0x3fe859fdfd56c1ea	0.7609853694939919
172	0xbff0dbe88c2e5bbe	-1.053688571531651
173	0x3fa5dc7356576939	0.042697529115417195
174	0xbfbdffec01b2ff77	-0.11718630830273279
175	0x400625dbdeb2cef1	2.768485774833487
176	0xc005f146f0f330ea	-2.742811090871432
177	0xbff2ed4e016db5d1	-1.1829357200434638
178	0xbff653981695dd09	-1.39540871450828
179	0xbfe1b356b26e4ac3	-0.5531419262864222
180	0xbff8c0259fcba405	-1.5469108812342267
181	0xbfff058ec63b2597	-1.9388568633461085
182	0xbff738f4377fe9b0	-1.4514047782855464
183	0x3fdba870154fb3f3	0.432155628978591
184	0x4001cdce394ffc13	2.2254909970793135
185	0x3fd22bbf0a72aede	0.28392005939779874
186	0xc00601fb8cfe9eb4	-2.750968076248535
187	0x4000f91f2fb087ad	2.121641514372604
188	0x3fb0757af6e580d8	0.06429260757204547
189	0x3fe60687a7af666f	0.6882971072293013
190	0xbfe9fe1b025ff1e0	-0.8122687384016523
191	0x3feedec0ce03be94	0.9646915458415202
192	0xbfd7266120b4118e	-0.3617174929970809
193	0xbfe7600a13c4aeba	-0.7304735551928936
194	0x3fe83a7559cfc337	0.7571360353595996
195	0x3fc20a76e46acd77	0.1409443488424633
196	0xc00a974e529dda71	-3.3238798574851036
197	0x3ffb9c20dd89fa68	1.7256172803751273
198	0x40008d0c2930c884	2.068870851327178
199	0x3ff6c3fd3031cd68	1.422848881015705
200	0xbfb2fc66691ddb27	-0.0741638189918886
201	0xc00b63d0dabe870f	-3.4237382020372773
202	0xbff965a2137780ee	-1.5873127708837802
203	0xbfed589b8f9c4614	-0.917066364754819
204	0x3fe7b33c8ee74f6d	0.740629462345607
205	0xbfd2b94196b6567b	-0.2925571414756189
206	0xbff98722531c32ea	-1.5954917189112003
207	0xbfe9f2c73d45ccc7	-0.8108860203486977
208	0x4006b2a7a6fe6bd8	2.837233833922692
209	0x3ff079c9dde58d03	1.0297335307921578
210	0x3fe7758f60bd935a	0.7331005944694013
211	0x3ffc709c309d56b8	1.7774927042968738
212	0x3ff9de0a0b1768ab	1.616708796812001
213	0x3ffd05468bfd9d6d	1.813787981833083
214	0x4009771b5ad24077	3.183157643834473
215	0x3fe1f3a683755b63	0.5609924857661607
216	0xbff794ebd71416f0	-1.4738577271941118
217	0x3ff31de5a1b23cec	1.194799071908899
218	0xbfa3d0f704e602f6	-0.0387036508063882
219	0x3ffd19824a7c178a	1.8187277707633904
220	0xbff2dafe149a2f2c	-1.1784649662758495
221	0x3fd96885fe1bc5bd	0.3970046025779899
222	0x3fcf7f495f0316ab	0.24607197894345254
223	0xbfec66505ddd7425	-0.8874894936849428
224	0xbfefd15c5908b8f3	-0.9943067301699372
225	0xbff4929bdbbd6809	-1.285793169363844
226	0x3ff220c182a0ec6e	1.1329970457725511
227	0x3ff3d161bc6f8b71	1.2386185990114564
228	0x3fd86c9bcb737ed1	0.3816289412334131
229	0x3fecff5cde28b380	0.9061722125094178
230	0xc00088920833be76	-2.0666847840109837
231	0x40032c51e6addc83	2.396640588932827
232	0x3fefefa77d7f8225	0.9980046702513091
233	0x400d96e2609c7368	3.6986739681000707
234	0xc001491943bfa161	-2.1606927197318986
235	0x400773ba01e93a64	2.9315071248341145
236	0x3ff1cf033a2619b8	1.1130401870192212
237	0xbfb20b41b9488c2a	-0.07048426412124856
238	0xbfc915b6a927f417	-0.19597514400075575
239	0xbfe0b08b4066a67e	-0.5215507753211595
240	0xbfde6dced9536295	-0.4754521486588968
241	0xbff49afc07c64e4a	-1.287838011140496
242	0x3fdd823aee207ed4	0.4610736203630783
243	0x3fd590ebce35b6a4	0.3369702829139476
244	0xbff522606c0d3b18	-1.3208927365082612
245	0x4001a230c2242d30	2.204194561699886
246	0x3fe60c896d0534fb	0.6890303735068807
247	0xbfe3967cb1b31dbb	-0.61212000567405
248	0xbfe91cde93862d04	-0.7847741013842158
249	0x3fe81533cdda9639	0.7525881786902523
250	0x3fd2f39e68b4be42	0.2961193106193357
251	0xbfe185b8729deb66	-0.5475733030901722
252	0xc000c7f1ffba2bf2	-2.0976295450868685
253	0xbfe828900001c3dd	-0.754951477063624
254	0xbfd3b09bacf024b5	-0.30765430344088013
255	0x3ffae71b86ac563b	1.681422735278274

bias f8 [1, 32]
0	0x3fcc81c21faedeaa	0.22270990893388404
1	0x3faafb151ee79440	0.05269685747388353
2	0x3fcbc3ed37f8900b	0.2169167063995022
3	0x3fd00425214899bf	0.25025299311019106
4	0x3fe9f579908df855	0.8112151931125121
5	0xbfd78b3a0295d1bb	-0.36787271740402233
6	0x3febe20fb9076cb8	0.8713453878257473
7	0x3fe3b8bc4733c227	0.6163007155101398
8	0xbff31d5064896760	-1.194656746598831
9	0x3fe0362dd0435d15	0.5066136424674449
10	0x3fe44b07b758e5f7	0.63415895280849
11	0xbffafb73fa43358f	-1.686389901721984
12	0x3fbbb1261190997e	0.10817182473019746
13	0x3fd114b25153e16e	0.2668882173743644
14	0xbfc9a0bd3864c70f	-0.20021786931607052
15	0xbfc4c0273720f68a	-0.1621140498336227
16	0x3fedb1d465277d9e	0.9279577232045317
17	0xbfd2d53519e0d97d	-0.2942631485670047
18	0x3fe8d7dbe2a8071f	0.7763499667055135
19	0xbfecd83f08b8804d	-0.9013972444845507
20	0xc000f7d2017e339e	-2.121006023086422
21	0x3fe48fabdfc8bd54	0.6425380106719936
22	0x3fc7a0fcc1495ce1	0.18460044324704142
23	0x3f892df111735690	0.012294658036277967
24	0xbfa981c2eb0ada54	-0.049818125907610394
25	0xbfec6e7c9c569edb	-0.8884871533855078
26	0x3ff1cd25746029f6	1.1125845476077507
27	0xbfd4c5df74cd0efa	-0.3245772019038068
28	0x3fd3f88b5197b766	0.3120449349215647
29	0x3fe7cc2a5a26c9f5	0.7436725388309343
30	0xbfe212f79039fd20	-0.5648153130459015
31	0x3fc5965028b6f33d	0.16864969242114994
