layers/layer3.npz (npz, 17108 bytes, 2 tensors)

weights f8 [64, 32]
00000000: f45f 826d 2575 f2bf b324 e9d3 d370 00c0
00000010: fd4e d5e5 535a f53f ea47 cd18 d13c b23f
00000020: 1f0c e7f5 4b54 87bf 9b91 5ab7 9958 e03f
00000030: ca69 a604 c150 b9bf b75a 36a5 2164 c8bf
00000040: 2815 01ea bea4 0140 ab01 5f99 049d fdbf
00000050: 1af7 99d9 3d81 dc3f 35b7 e80f a50b be3f
00000060: 5996 91f1 c542 f2bf 0a43 a2e1 8152 db3f
00000070: 6c50 15cb 62ae fc3f 5ebb 234d d69b c7bf
00000080: 6672 5d81 8c22 ddbf 4219 5d8c b0c2 e7bf
00000090: 4293 f097 ee04 d4bf 56d8 2974 e2da e83f
000000a0: 64d2 b5d5 9d29 07c0 112d 136f 041a c03f
000000b0: d9cc b6ac b00e b6bf b6ad dd64 7d55 dd3f
000000c0: f433 185f 9ea8 f8bf 2839 3282 6070 f0bf
000000d0: 8b0e 4464 b559 d0bf 2ef3 a5ae 218d da3f
000000e0: fa46 91f0 bff9 ea3f 8381 4b8a 1fef d4bf
000000f0: 1f35 0856 d617 c23f d07d 8dff 4146 f03f
00000100: e44b e516 7556 cd3f 2171 3126 4042 f2bf
00000110: 0dae fce6 a684 f43f 421c e9b1 716c d3bf
00000120: ddf4 4e71 9e24 f2bf 3a2a fcd8 0821 f73f
00000130: d0a1 be21 306f a93f 773d b93c 36df e33f
00000140: 605b 298c d1f9 c9bf e63e a33a adfb dcbf
00000150: c3a7 5fff cae4 e8bf 5864 9bc8 dbd4 e43f
00000160: 0757 7903 b0fb ff3f 01a5 1084 a25f f93f
00000170: 309c 3eeb 7560 01c0 ad57 ce3e 3efd eebf
00000180: e474 8dde a426 e03f 1774 2353 d563 e6bf
00000190: 7819 bbae 723c eabf e1cb 04d6 a3cb 0240
000001a0: 2f7b 5b40 1db5 e53f 752a edbc 713d e2bf
000001b0: 3675 7886 e4f9 f0bf b771 373a 3fee a1bf
000001c0: 582b 211a 625c e83f 2f97 d400 020d c6bf
000001d0: a331 4477 6665 f83f a82a 29a3 d1cd f63f
000001e0: 71a1 9a0a da24 f1bf e6c5 c7df 6ca8 e83f
000001f0: f13f eb0e 82e5 0040 02b3 da82 6389 f53f
00000200: 172a 6164 f46d f4bf eb50 f3c0 6a04 b3bf
00000210: aad6 bf2c 984b f5bf a16a 44f5 d7c8 af3f
00000220: c281 d2ba 3cf9 a43f ca2d 464f b957 f3bf
00000230: a537 1fbe 940e f0bf 1e1f fe87 6232 b5bf
00000240: 2ca6 707a 5767 e53f 45fb bafa c687 5bbf
00000250: 4a08 96ed b9ee dabf 26d5 66db d320 f9bf
00000260: 8c46 1934 4cbe f33f 5d8f 856d d0c8 e4bf
00000270: 0d7c 61d3 635c 02c0 256b 0750 22b8 e9bf
00000280: f5b4 3281 9b50 e43f 40e1 2fcb d006 c73f
00000290: cdd9 b323 6343 c1bf 4507 beef d660 fdbf
000002a0: 5c79 0c8e 03ef eebf 917a 87a7 8f7e dbbf
000002b0: 3b26 739d 878e e03f ccbd 61b2 ba90 edbf
000002c0: efa6 d29e f08b d93f ce82 e904 59a9 b03f
000002d0: 8466 01b3 44f6 ea3f 00c8 4b33 0028 f53f
000002e0: 5271 c107 a257 d43f 9d25 be01 bce2 eb3f
000002f0: 3e34 d105 4ecc e23f b57c 006a 1c91 cd3f
00000300: 9db1 23a4 3d5f f13f 5754 b5e5 f310 d6bf
00000310: 83a5 a23d 469e e83f c36d 8797 4080 f5bf
00000320: f45d e576 dc6f cb3f eb00 ba54 a7eb d43f
00000330: 543f a1c9 8999 e83f 3040 59f7 6b9b f13f
00000340: 2425 81f1 f3fd fcbf 1172 18e8 866b f53f
00000350: a608 0399 6d14 bfbf f5f0 c7a0 ec9d e43f
00000360: ac3c f8e6 3544 ccbf 662a a119 835d 0040
00000370: 2832 825a c023 c43f d108 a53b 29b0 d2bf
00000380: 2489 e481 c0ba e0bf b054 bb1b 83e6 dc3f
00000390: 68a1 a1f6 e2cc e73f fb31 9273 1aff 0440
000003a0: a54d 1ff3 a1b3 c0bf 812e 8649 c0ae f7bf
000003b0: 91f2 306c c7ff d3bf ab4c 9e31 239b de3f
000003c0: 1761 56a4 7f0c d53f 327d 73ee 403a f0bf
000003d0: af09 7e80 5f3b e93f 6d27 5a3e eb72 e23f
000003e0: 469e ddf9 88cd fcbf a48a 716b 86bc eabf
000003f0: a778 9d4f b312 05c0 e9b7 3a85 ede9 e53f
00000400: c4f8 3110 bc74 b5bf f880 83c2 111c da3f
00000410: c50c 71ca d221 e23f 8eea 5e9d 2eee f0bf
00000420: 6fd4 7f8b 5077 ea3f 0fc8 1025 0143 e53f
00000430: c929 341f cac5 e63f 0a52 f06c eb9d 02c0
00000440: 1ec9 e825 eb32 e2bf 7ac0 b815 236b d83f
00000450: 02b1 86a5 7699 07c0 b1cc 729d 4598 00c0
00000460: e881 8f80 1796 ef3f 28d6 6a69 a16a 02c0
00000470: f158 12f8 76ef debf bb00 7e82 34de f53f
00000480: 7fca df99 f3c5 fc3f a46c 37e2 87e2 ec3f
00000490: 8a5a 024d dc4b e0bf 1f14 f395 4aaa f63f
000004a0: bed3 bbbf 6559 eb3f 2f6f 363b 8e7f fa3f
000004b0: e281 5a79 6cb7 ec3f 13c1 c574 9be8 d5bf
000004c0: 5645 fbd8 0364 f4bf ea72 1bcf eea9 d9bf
000004d0: 9130 0199 ad52 e5bf ff62 d23d 9e94 c83f
000004e0: 2afd ed35 80af fabf 8543 6318 6a6f febf
000004f0: 3466 5205 979f c0bf c392 4dcc 262f c93f
00000500: 9c92 4009 9cee e83f c25d 7d00 c4fc b4bf
00000510: b502 29e4 82f7 aabf dde3 bede 6d79 f6bf
00000520: 4f19 c11b 470f 0b40 c460 c534 9dea 0440
00000530: 7cc5 461e a4e4 eb3f 8caa f65b dccb dfbf
00000540: 8646 5b55 d74e d0bf cc9d 0b5c 5d64 f33f
00000550: e112 da6e dfba 0340 8ccd 124d 0d74 eebf
00000560: 8648 1d85 5b14 e03f 9cb7 cfb6 8e6f e0bf
00000570: 179c 60b5 6fc4 d03f ef82 bdce 91a7 d4bf
00000580: b78b 60d7 e649 f8bf 7a11 16eb 0fdb e8bf
00000590: 815c cba1 56d4 e73f 5443 9c14 0e71 c03f
000005a0: 5cf4 0d8f a8fd bcbf 82f5 d60e 1324 ee3f
000005b0: fa03 2e1a 0ba9 dbbf 0f44 9fcc 846e e7bf
000005c0: 17d4 e2d6 7e6c e13f 9693 1eb9 6526 d3bf
000005d0: f290 949e af55 f3bf 04dd a3c4 c8de ca3f
000005e0: f23a b83d b2c2 e9bf a7d8 9657 c27b dc3f
000005f0: 6c6c 89a0 4ac0 f3bf 6386 ae1e 4a2d dfbf
00000600: 72cb 2cb9 a3a1 f8bf 1543 5f5c c1ef b63f
00000610: 184e 521e 6058 e8bf 9ece 99ab 376e ddbf
00000620: 9e9d 9e83 66f9 e73f e407 4614 2039 fd3f
00000630: 53d3 a7dd 57f4 eb3f 3f23 3884 8873 f8bf
00000640: 5878 b13e 6984 e53f db34 45b7 c206 fbbf
00000650: 88a2 6574 561f f1bf 6d79 fb6b 3f9b e4bf
00000660: d94c 92d6 ac21 d7bf 7076 4989 416c c03f
00000670: 4d70 cb9e d584 f43f 39be 411e c43d f8bf
00000680: a8fa 70f1 2cb4 f9bf febe ba7a 40b9 e03f
00000690: 083d f866 7d59 ca3f ce73 c535 3bf0 e93f
000006a0: 6bcc e123 ddb4 f7bf d926 82c0 1dd0 ef3f
000006b0: a441 6b99 83f4 d1bf 24d8 bdfb 43d2 0740
000006c0: 5600 143e dfd6 e3bf cf5f f8e2 3a1b e43f
000006d0: e473 f7fb fd2f f03f 9e2c 6969 ce58 d03f
000006e0: 10c4 c27f d12b d7bf 9a23 12d0 712c d73f
000006f0: 1efd f340 b0f7 e53f 1bed afc0 2b8f f13f
00000700: 3c04 30ea 477b 02c0 a916 705e 949e e23f
00000710: 4c85 e773 a3cc fabf d665 4b68 1f5a f6bf
00000720: 9557 435d a96b bcbf dec2 50ef f20d edbf
00000730: f140 d985 2003 fb3f 8259 8d0c 8934 bcbf
00000740: f8d9 602a fed6 e3bf 3054 1e58 6dbc d23f
00000750: db71 7529 1546 f7bf a885 ea1e 87d7 e4bf
00000760: 79c4 568a 191a e4bf ab72 2894 e93f eebf
00000770: 90d9 c225 fb83 d53f 2ca9 48ca 1328 f53f
00000780: 540e 5e17 c794 e6bf 5421 ca67 6f33 0040
00000790: 1b0a 6b72 6eaa e4bf 89d7 cd70 2e35 e13f
000007a0: f49b 4a4f f8ad e73f 1d71 a748 dfa9 d03f
000007b0: 6e81 e308 270c e3bf 4a76 9ebb c66b debf
000007c0: e0e4 2ac3 a3f5 d73f 9375 1fc1 119c f53f
000007d0: 8c2c 46f9 dbb4 d33f 001b a721 d526 d4bf
000007e0: 636b b342 1219 d7bf 614e 711b 7085 cc3f
000007f0: 197f b7f4 18ac df3f e3bf 9c2c 2af7 92bf
-1.1536001470285528 -2.055091529419394 1.334552667413788 0.07124049048914541 -0.011391251985406524 0.5108154851082419 -0.09888845790411618 -0.19055576865203758
2.205442264707603 -1.850834464174208 0.44538828134669617 0.11736518515018875 -1.141302055003868 0.42691084894708864 1.7925746853771 -0.18444327131825394
-0.4552336943941441 -0.7425158254125466 -0.3128010257517425 0.7767193096940541 -2.8953205772507307 0.1257939855916921 -0.08616165367748198 0.45834288454235705
-1.5411666597967697 -1.0274357877529585 -0.25547537604891407 0.41486398749821063 0.8429870318015837 -0.32709492211690633 0.14135245514663894 1.0171527845885642
0.22920096986726357 -1.1411744586867558 1.2823857329302684 -0.3034939038665848 -1.1339401651487642 1.4455650783517187 0.04967642223283841 0.620997542000551
-0.20293635696244916 -0.4528611252435283 -0.7779288280264541 0.6509837072473017 1.998947156496287 1.5858483465947872 -2.1720999124986733 -0.968413469951647
0.5047172877054007 -0.6996866821097026 -0.8198789036476191 2.34943358614099 0.6783586747149907 -0.5700005235642737 -1.0610089543109331 -0.03502080522204969
0.7612772474616163 -0.17227196732090408 1.5247559222071707 1.4252487538785008 -1.0714970030040514 0.7705597277364944 2.1120644727270634 1.346042166852556
-1.2768443986011613 -0.07428614817337446 -1.330955672075485 0.06207918995842943 0.04096402912660181 -1.2089169594427056 -1.0035598208082572 -0.08280006237157209
0.668864955082602 -0.0016803210409503538 -0.4208206958938986 -1.5705145426157485 1.2339593920809504 -0.6495134486290045 -2.295112277424329 -0.8037272990289678
0.6348397754096867 0.17989549561731089 -0.13486899607933225 -1.8361424794133694 -0.9666764997853465 -0.4295996795680504 0.5173986506644676 -0.9239171489734246
0.399166255093049 0.06508404130864706 0.8425620552254292 1.3222658160925675 0.31784868962656276 0.8714275392568883 0.5874395478837255 0.23099093604921497
1.085752144975323 -0.34478471214726397 0.7693206027808376 -1.3438115996458329 0.21435123258082422 0.32688315652923333 0.7687424600680779 1.1004447614723283
-1.812000220658157 1.3387517038564776 -0.1214054583133782 0.6442778721098238 -0.22083162095848274 2.04566020987595 0.1573410455643096 -0.29200201821016686
-0.5227968728034154 0.45156934459857734 0.7437605683344772 2.624562170886063 -0.13048195239262586 -1.4801638481175419 -0.31248651090189933 0.4782188400797149
0.32888785408569404 -1.0142220797059278 0.7884976873031543 0.5765281884971337 -1.8001794586542856 -0.8355133150583538 -2.6341310710841586 0.6848056413780316
-0.0838124789752071 0.4079632186458322 0.5666288331925889 -1.0581499240203445 0.8270647739979163 0.66442925681463 0.7116442307899941 -2.3271091948356615
-0.5687156429687865 0.381539126598916 -2.949933331654507 -2.074351530137925 0.9870717535923719 -2.3020656810501983 -0.48336576677083004 1.3667492959357748
1.79832801920989 0.9026526850024266 -0.5092603210531064 1.4165750367549277 0.8546627754973242 1.6561415017121808 0.8973905916391767 -0.342322219882605
-1.2744177318421257 -0.40099687791170757 -0.6663425434467333 0.19203546541827873 -1.6678468805910804 -1.9022007897039839 -0.12987029800278693 0.19675145126088553
0.7791271382053142 -0.08198189746814591 -0.05266961131247198 -1.404645795917751 3.3824598472885223 2.614557659409998 0.8716602889382297 -0.49681767445387304
-0.25481208167648395 1.212003097107174 2.466246477155764 -0.9516664986935424 0.5024850463762653 -0.5136178560767237 0.2619895240081304 -0.32272763432960877
-1.5180424130601133 -0.7767409888770509 0.744670215611123 0.1284501648556452 -0.11324552052060838 0.9419036187970706 -0.4321925883924106 -0.7322410580183049
0.5444940754883899 -0.29921858861990225 -1.208419436888161 0.20992383576933815 -0.8050166326009658 0.44505365899693533 -1.2344461699456373 -0.4871392535806988
-1.5394627793691282 0.08959587578943869 -0.7607880203453901 -0.4598521400250578 0.7491943903632323 1.8264466087280136 0.8735770539484328 -1.5282063641372614
0.6724134659268755 -1.689150539302594 -1.0701508089788678 -0.6439511403112143 -0.3614303679871234 0.12830371097054494 1.282430286685684 -1.515079611006412
-1.6064881736089465 0.5226137539920896 0.20585601356331318 0.8105751085491819 -1.481656208194887 0.9941548118524351 -0.28054895384141276 2.9776687304793246
-0.6199794971908072 0.62832397775764 1.0117168276258264 0.2554203061487871 -0.3620494601883033 0.36208768195552354 0.686485411511885 1.0974538351864058
-2.3101957603362546 0.5818578571786094 -1.674960568191028 -1.397002608681182 -0.1110177853291517 -0.9079527544145909 1.6882634380781918 -0.1101766257901087
-0.6199942424489668 0.2927506790668444 -1.4546100253565928 -0.6513095477895847 -0.6281860067303021 -0.9453018087111408 0.3361804836998994 1.3222844983780062
-0.7056613403696681 2.0251148327408064 -0.645804618332764 0.5377418711857312 0.7399865673695545 0.2603681764137649 -0.5952334569556521 -0.4753281433312152
0.3743676572735932 1.3506028694021992 0.3079137739484359 -0.31487015043641975 -0.360905232560688 0.22282220211001216 0.49487899683116293 -0.01852098367015732

bias f8 [1, 32]
00000000: 6f67 e1c7 5b09 b43f bc89 9757 a973 e7bf
00000010: 6e3e 9436 6e31 d1bf a138 5619 7d3e e73f
00000020: b8cb 02d0 80db eebf f836 1238 3c74 d8bf
00000030: d82d 7a08 72d5 ff3f 3d02 ed30 dd7d b53f
00000040: 0943 e1a9 c66a dcbf 8ef7 a91f 5612 a7bf
00000050: 8790 f778 d4dd d43f d5c6 c5cb 35f3 d4bf
00000060: 1752 164f f3bf e6bf a461 dc17 54f6 fabf
00000070: 0844 26a1 6509 f0bf caf9 2d9b 279e d53f
00000080: 3280 9aeb f21c 7e3f 3dae 8ba3 e053 eabf
00000090: 9f3e 4fb1 b2c4 ea3f b85f 211d c34f ddbf
000000a0: cd65 4adf 7093 c03f a0bc af03 0a3d d1bf
000000b0: e0bd 003e c82a d6bf 4ea2 6624 18be 80bf
000000c0: a824 6389 158b dd3f 31d9 29c8 3117 d6bf
000000d0: 9317 3d7c 71d8 f03f 812a b9e6 5a91 e33f
000000e0: 357f ea5b bbf2 de3f 0b9a 0ac2 4126 e03f
000000f0: 1ab8 ef43 7691 dbbf f057 54a2 d185 e53f
0.07826779966253893 -0.7328688345699486 -0.26864199953067824 0.726378011213246 -0.964294821044283 -0.38209443546007504 1.9896107035773323 0.08395178265073695
-0.4440170916541751 -0.045061770787454866 0.3260394269293631 -0.32734436893143243 -0.7109314484283143 -1.6851387912812266 -1.002294187059535 0.3377779975343428
0.007351826579594033 -0.8227389520884071 0.836510988528932 -0.457993296096443 0.1294995394026003 -0.26935053215033555 -0.3463612180230182 -0.008175076113574733
0.4616140214607847 -0.3451656775208845 1.0528426030227578 0.6114935404123828 0.48356517769024104 0.5046700277205799 -0.43075329431928966 0.6725853128907584
