layers/layer1.npz (npz, 4820 bytes, 2 tensors)

weights f8 [16, 32]
0	0x4000fb02e0e31fe3	2.122564083987514
1	0xbff0269923a71350	-1.0094233887368382
2	0xc0072f346bfc6d4c	-2.898049205437621
3	0x400073cbb897e33b	2.0565409108498023
4	0x3fe7a4402fa31f06	0.7388001375593098
5	0x3ffbc35acddec024	1.7351940194894349
6	0xc0008cff3f71d8fb	-2.0688462216013455
7	0xbfb6f4b9abb0a87b	-0.08967171136524314
8	0x3fef82567b97b7fc	0.9846603788298576
9	0xbff027ed5b793f0d	-1.0097478459537712
10	0x3ff900d704fd9d02	1.562705058569748
11	0x3ffd56e4d714a5bd	1.8337143327320142
12	0xbffc480de33b8a0f	-1.7675913692734218
13	0xc0002568e77f7edf	-2.0182664953025404
14	0x3fea3974ba2d42c7	0.8195136677041653
15	0x3ff498ba12be78fb	1.2872868282498178
16	0x3fea2e6ae4126fb9	0.8181662039310061
17	0xbfdb8aefc5b0cbd4	-0.4303550177166333
18	0xbfedeada7a318eb4	-0.9349186312287743
19	0x3ff86efa94a304d7	1.527094441044303
20	0x4000a8f6b72c30d4	2.0825018225060408
21	0xbff449adfd6ff464	-1.2679881954093384
22	0xbff49efc38a3a58c	-1.2888147556753635
23	0x3fbf5abd3fa6d4c7	0.12247832111355016
24	0x3fd1b8c7d18e427a	0.276903109211197
25	0x3ff6b2c94a03cae7	1.4186489955142692
26	0xbff2a269f10f568b	-1.1646518150713827
27	0xbfce210c924943e6	-0.23538357870941623
28	0x3feb3b4b843fa6df	0.850988157556653
29	0x3fd7cf1281478b93	0.3720136892790659
30	0x3fe4c8371cf73d84	0.6494403424966753
31	0xbfd5d2418885defc	-0.34095800716703173
32	0xbfe4a02c480e9b30	-0.6445523650516858
33	0x3ff87ada01bbe948	1.5299930637107355
34	0xbfc34143836935ec	-0.15042919079353056
35	0xbff05049af9dcc0e	-1.0196015224471497
36	0xbfe1a9152e74be85	-0.5518899829239251
37	0xbfed1a581e92f947	-0.909465846743651
38	0xbfdbbc24cb6c44a8	-0.4333583818962077
39	0x3fe15f1639334a20	0.5428572766489346
40	0x3fd33bb27d9555d1	0.30051862968443027
41	0xbf970dace3554fb4	-0.022513104796715047
42	0x3ff595e2d5b08c41	1.349093279576451
43	0x3fc46541e8466d89	0.159340132155972
44	0x3fe0b421acab85c7	0.5219887134991773
45	0xbfea2372c8abc00b	-0.8168271941522119
46	0xbfef365b190c21f6	-0.9753852357108019
47	0xbff144bf5b2e8f28	-1.0792840539733763
48	0xbffa6f7fa24e9b3a	-1.652221330654085
49	0xbfecf8f983504387	-0.905392414542903
50	0xbfe4531bdca3f464	-0.6351451215156314
51	0xc0061dd39e4f4286	-2.764563786310023
52	0xbff7fdf6b2d1b8e1	-1.4995028481603685
53	0xbff338e820978be7	-1.2013932488559875
54	0x3ff2cbdbc83684c2	1.1747701474017025
55	0xbfe231cd8d30861f	-0.5685794599159556
56	0x40030048a1aaa2e7	2.3751385336112096
57	0xc006868f09be5ea2	-2.815702510950204
58	0xbfc00012477d1f8a	-0.1250021790567611
59	0xbff0cc8e79544f3f	-1.0499405612399213
60	0x3ff309d4810d2d2a	1.1898999253342688
61	0x3ff8803aa196f096	1.5313059150785526
62	0xbfe31e3930fb1f72	-0.5974393803271438
63	0xc00376e1aa45a862	-2.4330476095683915
64	0x3fc56d6a0f6e090b	0.16740155938538978
65	0xc003151d06d51a6a	-2.385309270265954
66	0xbff597a871e404e6	-1.349525875936075
67	0xbfe9c09135db2d32	-0.8047567417028516
68	0x3ff5c81af510841d	1.36135383346869
69	0xc00752fd3f82f6b8	-2.915522094902226
70	0x3fb33f958ad0a0a0	0.07518896712338341
71	0xc000439bc694c52a	-2.033011962332826
72	0xbfed0acd5b63246d	-0.9075686249644953
73	0xbfed724bdfcccd31	-0.9202021952718608
74	0x3fbdd5910f959a20	0.11654001837232686
75	0xbffbdd645b7bca6f	-1.7415507863594504
76	0x3ff252d23cae396a	1.14522002890916
77	0xbfd18a505c068bb8	-0.2740670107543184
78	0x3fd7ee2b67afc4f6	0.3739117157520718
79	0xbfe65a4d3d2b0c5a	-0.698523158520753
80	0x3ffce9f83be1716c	1.8071214999282246
81	0x3ffbf08a90f94a08	1.7462258971251021
82	0xbff87d392449d077	-1.5305720727456256
83	0xbfc81d9d820979d3	-0.18840378617728834
84	0xbff2ade552748370	-1.167455026712755
85	0x3fe168e844727015	0.544056066213218
86	0xbfcc38a8d9c58a6b	-0.2204791129434683
87	0x3fe68979f9a42d88	0.7042817951018359
88	0x3ff3d3c9cb6a891a	1.2392061181968246
89	0x3fe661d9bfa04cd7	0.6994446509073907
90	0x3fd981152d7253a1	0.398503584271845
91	0x3fd7aca211b3d97c	0.36991168717158707
92	0xbfeb30c3f02d6fa8	-0.849702805611277
93	0x3ff2cca43d120028	1.1749613175925422
94	0x3fb06117e97c8e4e	0.06398152780871522
95	0xbff5ae9532c655ba	-1.3551227553738117
96	0x3fdc9a269112d641	0.44690860907880753
97	0x4009484831a68dcc	3.160293949027368
98	0x40014d28c6f7c9c0	2.162675432621853
99	0xbfde09f0776e4de5	-0.46935664809390537
100	0xbff916e50f896307	-1.568089543047053
101	0x3ff5bd09ae3c9b49	1.3586518102763014
102	0x40064b6d6f568c21	2.786829824284283
103	0x3fb9b4835da2d88a	0.10041066204107288
104	0xbfdd7471965649aa	-0.4602321594367377
105	0xbfee2cbdfb8fe397	-0.9429616845437633
106	0xbff078f8d1f084b5	-1.0295341683161443
107	0xbfaec19f4f257412	-0.06007097092763315
108	0x3fe567f4456f68ec	0.6689397197872302
109	0x3ff6a8dd6f9b5af7	1.4162268027918665
110	0xbff13acc27aa2a22	-1.076854853573089
111	0xc003fa494813e9b9	-2.4972100859715423
112	0x3fca436f7eaee1da	0.20518296895694627
113	0x3fd5bdfd9b2b095d	0.3397211089433279
114	0x3feef983c6ff01f6	0.9679583441393891
115	0x3fde223ec2a670c5	0.4708401585464908
116	0x3fe433ae28b76c13	0.6313086314434052
117	0xc003f6c2bc92fdba	-2.4954886181219225
118	0xbff3c2f8b06323e8	-1.235100449574242
119	0x3ff598ecebc9e9c8	1.349835320520116
120	0xc003b386f2c3b408	-2.4626597372030155
121	0x4001dd196e907b15	2.2329586637346304
122	0x3fe253a480c6a876	0.572710277095452
123	0x3fec75daa6e216f1	0.8893864879071015
124	0x3ff406f6130048e8	1.2516995184164958
125	0x3ffe22b2acef48db	1.8834711795103007
126	0xbf6b56280dcb9a35	-0.0033369810392856144
127	0x3fb235d1ec277dd0	0.07113372817501973
128	0xbfdd748574366c35	-0.46023689602742773
129	0x3f92a2f7af343ec8	0.018199796742065982
130	0x3ff3c4d6ed3bb1df	1.2355565325661855
131	0x3fdcfb7c4791a486	0.45284945477630634
132	0xbfea45be5038ba5b	-0.8210136000469207
133	0x3fe5cb1e776b13d0	0.6810448009861094
134	0x4001cc413b5cd53b	2.224733794947182
135	0xc00288fba7af9cf9	-2.3168862438648117
136	0x3fdcce7c66c8360d	0.4501029018145751
137	0xbff2fad78726a874	-1.1862406997047659
138	0x3fc8582f25b35eb8	0.19019116726734864
139	0xbffc95eb43e4fea9	-1.786601319516118
140	0x3ffd62a178c79567	1.836579772754101
141	0xc005af1aa1044eca	-2.710500009483302
142	0xbfe89bc616aee0c1	-0.769015354445422
143	0x3fda28e6c27de3ed	0.4087464236577592
144	0xbfed00dab8a096dd	-0.9063542943956368
145	0x3ff777159aac0236	1.4665733377334056
146	0x4002b337ccb5a60a	2.3375087731299162
147	0xbfd6c689b263151b	-0.355867790418715
148	0x3ff8c442a68fd5a5	1.5479151254961405
149	0x3fc39d85c164c0e9	0.15324470465703335
150	0xbfe6bf6ed9e7e969	-0.7108682876562799
151	0xbff2693137c9e2d6	-1.1506817034952994
152	0x3fc7540e1b6c4ffb	0.18225265826242762
153	0x3fe7cceb84b72741	0.7437646476839533
154	0x3fdcbf0a2fc48def	0.44916014351676287
155	0x3fa298264ddb2966	0.03631705952064372
156	0x3ff45f4001135acf	1.2732543985381886
157	0xbfa3ac8446367f22	-0.038425572939784894
158	0xbff1ee680d7738ca	-1.1207047010425861
159	0xbff3b17e8bff8b4e	-1.2308335751228756
160	0x3ff3a2bff55b0122	1.2272338470648454
161	0x3febcecbeb7ad904	0.8689937209335601
162	0xbfc6532b4dff3b1d	-0.17441312130400713
163	0xbff80ddc1bb46cb2	-1.5033837396829708
164	0x3fc9878534ab9607	0.1994482524088854
165	0xbfd6da323aa4d8cd	-0.35706763960787385
166	0xc0026d59862ca788	-2.303393409955735
167	0x3ff8b8d3aba81860	1.54512373975151
168	0x3fdb432100f32e7c	0.4259722241665498
169	0xbff8384b4626a916	-1.5137436619066356
170	0x3fe83ffde29ec12d	0.7578114916014208
171	0x3fe8c8e4a8613816	0.7745230950038173
172	0xbff10979fd301c01	-1.0648136034158144
173	0x3fa5b1fe796121cd	0.0423736117523422
174	0xbfbbb9434ac057ee	-0.10829563689216545
175	0x400670c6290dec73	2.8050654609083323
176	0xc0060f954158e7ec	-2.7576089005715314
177	0xbff2ef560063e33c	-1.1834316268197673
178	0xbff663f8b6bb8849	-1.3994071138372581
179	0xbfe1f81ca6eaa47b	-0.5615370998467734
180	0xbff8a1ccff4b1881	-1.5395021412273595
181	0xbfff04ece92090f7	-1.938702498105213
182	0xbff764b5a3d4956c	-1.4620872878670879
183	0x3fdb22e98e53ddd3	0.4240058793943408
184	0x4001e889f19dc34f	2.2385443569441246
185	0x3fd19d6cbe50dd26	0.27523344598326316
186	0xc00611344b549690	-2.7584005246342898
187	0x400121dea8b4f9f5	2.141537969611131
188	0x3fb6647b0348b9cc	0.087470711042193
189	0x3fe62495733ec03e	0.6919657946473377
190	0xbfea6844421b5900	-0.825227860560318
191	0x3fef6b8964f59d20	0.9818770381797641
192	0xbfd7779d96f01457	-0.3666757558824591
193	0xbfe7439713e5c12e	-0.7270007504103313
194	0x3fe87702948a21aa	0.7645275975383374
195	0x3fc2709d3cf9ec7b	0.14406171300274537
196	0xc00aaf0463fbe214	-3.335457593082774
197	0x3ffbf9bd137228f0	1.7484713325125618
198	0x4000990f745590c8	2.0747365082371267
199	0x3ff6c274c48eebe8	1.4224746397073833
200	0xbfb318611dd39345	-0.07459074953255847
201	0xc00b653fd1ea8695	-3.4244381332108085
202	0xbff978f744fbb707	-1.5920326895388273
203	0xbfed7fd06f12050b	-0.9218523187011284
204	0x3fe812b481163173	0.7522833367561773
205	0xbfd2cfe6d7ce896e	-0.29393931460267353
206	0xbff99cc14580de96	-1.6007702555633947
207	0xbfe97f9710cc9e09	-0.796824963389498
208	0x4006c72eb0658538	2.8472570210439265
209	0x3ff078e7c87d0822	1.0295179206446012
210	0x3fe77125a9680444	0.7325619038312046
211	0x3ffc80af7d6b08b1	1.7814173602242074
212	0x3ff9c58761422a8a	1.6107248114737183
213	0x3ffcd5c213c0ea75	1.8021870395301935
214	0x400988a4430027e3	3.191719554369216
215	0x3fe21443dbe5d6a5	0.5649737639311821
216	0xbff7cb69feb11005	-1.487161631478558
217	0x3ff327750a45abf3	1.1971331025367788
218	0xbf91868642184d89	-0.01711473253642518
219	0x3ffd2a2834f99a1f	1.8227922505699394
220	0xbff2bd4582787526	-1.1712088676934598
221	0x3fd94851d1683ddb	0.39503903818055414
222	0x3fce92042de6e123	0.2388310646181334
223	0xbfec4af9b5a7d562	-0.8841522739373142
224	0xbff06f6fffc3077a	-1.0272064200111957
225	0xbff4f490ec27b364	-1.3097085213477948
226	0x3ff270fa3de39c2f	1.1525823991339725
227	0x3ff3ec35f8730925	1.2451686577847536
228	0x3fd7b3b833bb256a	0.3703442101655897
229	0x3fedd0b3ae36d856	0.9317263033506247
230	0xc0009ca8332ec2a5	-2.0764926909108277
231	0x4003023f8121c0be	2.376097687571103
232	0x3fefd7672d47e130	0.9950443157568198
233	0x400d8d5de85b732d	3.6940267708690926
234	0xc00175fcfa03d05d	-2.1826114208616176
235	0x4007abd8d4e2c805	2.9589096671779793
236	0x3ff1b41514aa07c6	1.106465416640718
237	0xbfb239312660e417	-0.07118518053984278
238	0xbfc706ba3592b878	-0.17989280334353785
239	0xbfdf1affa9e59ef8	-0.48602286902904224
240	0xbfde5c107b35b2eb	-0.47436916382029776
241	0xbff4aa74a6bc0920	-1.2916151536051714
242	0x3fdd9bb4f08c85b3	0.4626285885916232
243	0x3fd44daea2156ed2	0.31724134281624317
244	0xbff51b91b07be597	-1.3192307371049077
245	0x4001b34fed35bc79	2.2125547916435235
246	0x3fe5caf396507810	0.6810243545367047
247	0xbfe364feaf6a5e11	-0.6060784746250097
248	0xbfe8af83eb301866	-0.7714252084267741
249	0x3fe771c660ee5c1f	0.7326385396180547
250	0x3fd35d8f0c5d427b	0.3025853749032092
251	0xbfe0e2f5764d3f72	-0.5277049360829393
252	0xc000c60cb24a9f2a	-2.0967039040587183
253	0xbfe8048a553757d6	-0.7505542435053438
254	0xbfd4ca83cb4630be	-0.32486052371019614
255	0x3ffaf34b25714a3b	1.6843978369330574

bias f8 [1, 32]
0	0x3fca7b82ce8408b0	0.20689425548341012
1	0x3f988f476e82718f	0.023984066123931277
2	0x3fcc550a39f28998	0.22134521321738698
3	0x3fd135faaf642e9f	0.26891963127193635
4	0x3fe9c4b37e557fac	0.8052613704166922
5	0xbfd63eb95540382b	-0.34757836652068147
6	0x3feaf2918a8b7ec6	0.8421104150729313
7	0x3fe3b43394e4e338	0.6157472522819267
8	0xbff31c245900c142	-1.1943706013372126
9	0x3fdfe7e19847a7ed	0.49852790709576206
10	0x3fe406887c826cc9	0.6257975036454805
11	0xbffaa56d7606d669	-1.6653875933092428
12	0x3fbe40eb911f6245	0.118178103380509
13	0x3fd11ea4c532694d	0.2674953389884152
14	0xbfc94b16de1040f7	-0.19760404437011633
15	0xbfc1a3689e637d04	-0.13779933675593992
16	0x3fed6495b1828bdf	0.9185284106246135
17	0xbfd30c98cdb2352e	-0.2976438530684672
18	0x3fe8aeef7ac51b62	0.7713544271326607
19	0xbfed2a0e2e6234ce	-0.9113837152414364
20	0xc000e36f90f16121	-2.1110526393569136
21	0x3fe4bb7087c7bb6a	0.6478808071095561
22	0x3fc6569821694df3	0.17451764708913195
23	0x3f814e82887fca46	0.008450526991485973
24	0xbfa3d90069c87ac6	-0.0387649659280576
25	0xbfece123d99c3bd0	-0.9024829149437839
26	0x3ff1d3e28bc1b14d	1.1142297229044573
27	0xbfd446bb426e760b	-0.3168171070809371
28	0x3fd59dcb9f2dbc37	0.3377560667494807
29	0x3fe7f4f4818df81f	0.7486517458307879
30	0xbfe2990c93d1ffd2	-0.5811827551951814
31	0x3fc830ec74a72f2f	0.1889930314631498
