layers/layer3.npz (npz, 17148 bytes, 2 tensors)

weights f8 [64, 32]
0	0xbff27916c6f9dfa5	-1.1545627377035796
1	0xc0006604e1202815	-2.049813994211045
2	0x3ff5508a35d1ff10	1.3321630575518988
3	0x3fb651feb65f3c27	0.0871886439556283
4	0xbfa2465a76fe90d3	-0.035693003678973455
5	0x3fdfa1b6c5b8ab0c	0.4942452364800125
6	0xbfb8124ad2d294e9	-0.09402911803279647
7	0xbfca23f0e598e3fe	-0.20422183237840835
8	0x4001ad8cf1a3a817	2.2097414854115516
9	0xbffd4ceb4dadbdc5	-1.831279090339977
10	0x3fdd2a09efbb96c8	0.455690845598252
11	0x3fc212aee7fb40aa	0.141195166847415
12	0xbff22d20de41759a	-1.1360176736701306
13	0x3fdacff0fea499e0	0.41894173495748355
14	0x3ffc8cd6e24ee238	1.7843846168672268
15	0xbfc6ceb407c15fcb	-0.17818308237724376
16	0xbfdc496b2007e258	-0.44198110702521864
17	0xbfe7b8203f25b6e2	-0.7412263139101152
18	0xbfd388c49897df07	-0.30522265340503946
19	0x3fe87f912246bf4f	0.7655721349201289
20	0xc00724dddee2542e	-2.89300130966378
21	0x3fc0a2e0276c151a	0.12997056889450037
22	0xbfb7407c14793b7e	-0.09082770824282524
23	0x3fdd1f1102954848	0.4550211453653259
24	0xbff8b94de2e75556	-1.545240293829314
25	0xbff084b991fa904b	-1.0324035360618093
26	0xbfd058550f8580ab	-0.2553913737847419
27	0x3fdabd4a0743a136	0.41780329427139706
28	0x3feb2586a546e8c2	0.8483308055940812
29	0xbfd4f9a85b8f4e36	-0.32773789349923577
30	0x3fc38cb09d7d4913	0.15273101510917594
31	0x3ff034a6c015e28f	1.0128543380107293
32	0x3fcd81a2a05890d4	0.23051865414993833
33	0xbff23ec43c83383c	-1.140323864342931
34	0x3ff45a5c49a229ec	1.2720606685930944
35	0xbfd2b42657dfa8da	-0.29224546986973865
36	0xbff24dc3366efda0	-1.143984997397503
37	0x3ff70dbe1f7d0014	1.4408551435481103
38	0x3fb0fc33a5c0ef53	0.06634829327316298
39	0x3fe3dfa6f9c9aadd	0.6210512999217276
40	0xbfcaab0c20578652	-0.20834495143121728
41	0xbfdc0d8faa9f9b5a	-0.4383277097935455
42	0xbfe87ff2e6ff9dfd	-0.765618754548029
43	0x3fe50f1cd965652c	0.6580948110596743
44	0x3fffff0058afd047	1.9997561897589706
45	0x3ff93c62362849f5	1.5772420993349645
46	0xc0015b15ace26ba4	-2.1694749361608547
47	0xbfeeec791c5c9232	-0.96636634387375
48	0x3fdfb0ad0d7449f3	0.49515844644443446
49	0xbfe667356f3e4657	-0.7000987217636049
50	0xbfea0ff959886c8b	-0.8144499539079261
51	0x4002909f355aff8a	2.320616165961785
52	0x3fe5bbf138f2564d	0.6791921722639899
53	0xbfe22e4455211a30	-0.5681478178674464
54	0xbff0edb5de06edfc	-1.0580347702915551
55	0xbfa3a933abeb510e	-0.038400282608252664
56	0x3fe8564a5fad91fb	0.7605335110388859
57	0xbfc69ba8017e0845	-0.17662525246493224
58	0x3ff86575e8d2040b	1.5247706503435008
59	0x3ff6d1f4c1565b8b	1.426258807395899
60	0xbff11ae48da33f09	-1.069065621635618
61	0x3fe8aaa569663021	0.7708308275773598
62	0x400102e47a8d8716	2.1264123510781117
63	0x3ff577b0d28bf47b	1.3417213654022635
64	0xbff48c24bb90bc55	-1.2842147185108577
65	0xbfb29c8f9c65ee13	-0.07270143097223807
66	0xbff558fa8ef3f471	-1.3342233261203342
67	0x3fb377839461df32	0.07604238865485227
68	0x3f97f4359b6dcd49	0.023392522441509276
69	0xbff3cc4e87f651ac	-1.2373795805952836
70	0xbfeffbbba663a1f3	-0.9994791269101014
71	0xbfb9bc552c1e41d3	-0.10052997901062292
72	0x3fe5ab34aebeedf1	0.6771491444591772
73	0xbf88ab5d5672033f	-0.012045602036097612
74	0xbfda343680919144	-0.4094368224671323
75	0xbff9207f89488957	-1.5704341280584992
76	0x3ff37b75e3f51598	1.217641725977364
77	0xbfe51b3bbee0eae4	-0.6595743873689028
78	0xc0025a4ca544300c	-2.294091502326415
79	0xbfe8f4c2ceab0dee	-0.7798780476081768
80	0x3fe48beb4f7b512a	0.6420799782158941
81	0x3fc7511c826ccf8c	0.18216282242212534
82	0xbfc039a1dce5baf5	-0.12675879751210287
83	0xbffd9b61b7cb12d4	-1.850434987966925
84	0xbfef0e5e33373b8b	-0.9705039024646437
85	0xbfdb6939e9cb8c3d	-0.4282974990039213
86	0x3fe07cf0528e8ca2	0.515251313442054
87	0xbfedb0fddd631c91	-0.9278554271667351
88	0x3fd96e3176bc373c	0.3973506602786647
89	0x3fae4361830ccb35	0.05910782551509045
90	0x3feaf6abdc47dcbc	0.8426112463338522
91	0x3ff54ca2f1759707	1.3312100822453787
92	0x3fd482ae55cc95c0	0.32047613505195827
93	0x3febdc8a18f0b912	0.8706713187328055
94	0x3fe358dd2897129a	0.6045976441169671
95	0x3fcdd875df386e42	0.23316834830699135
96	0x3ff12da4cc038b80	1.073643490723697
97	0xbfd62648997b8745	-0.3460866450169429
98	0x3fe8d6c80438c5fe	0.7762184221703021
99	0xbff53c83596cedc2	-1.3272737019714076
100	0x3fca27d7ec8292c7	0.20434092567770376
101	0x3fd3534bc66d6f74	0.3019589841621759
102	0x3fe89a5159ffb1ed	0.7688376195706589
103	0x3ff14e60afb5c0fc	1.0816351760550438
104	0xbffcc9110a8b97e2	-1.7990885173726316
105	0x3ff56403bcbdfcca	1.3369176266422067
106	0xbfbc61cfd7797e10	-0.11086749086961611
107	0x3fe4e15972657110	0.6525084718992122
108	0xbfcd2cce3b100684	-0.22792985805431354
109	0x40004a8adc9a9b85	2.03639767023873
110	0x3fc388bc630b7339	0.15261034809273058
111	0xbfd178506ea220a0	-0.27296839527162753
112	0xbfe0801409076ffe	-0.5156345535610851
113	0x3fdcdf0d7fa7d5aa	0.4511140581738241
114	0x3fe81ed33dc77617	0.7537628370880068
115	0x4004d5eae134c387	2.6044519037463405
116	0xbfc1caa9d5bffe06	-0.1389972966862702
117	0xbff7ad66f29cb966	-1.4798345067061631
118	0xbfd39c028a0e9225	-0.30639708978768204
119	0x3fde587f1325de07	0.47415139074243523
120	0x3fd545b6cb0085a5	0.33238000702302833
121	0xbff06c1ae79fa938	-1.026392845897659
122	0x3fe93ba8e2a21ac9	0.7885326792173483
123	0x3fe295aaa40c3466	0.5807698444419997
124	0xbffc9e3de06d3498	-1.788633228937476
125	0xbfeac2c4e07f4439	-0.8362755188665069
126	0xc004e4321c4c4109	-2.611423703267182
127	0x3fe5f80b7f2bcda1	0.6865289195833847
128	0xbfb54dd8269370c0	-0.08321906034274473
129	0x3fda16aa4d2bf6a6	0.4076333764677237
130	0x3fe221fef3dc25f9	0.5666498911752448
131	0xbff0ef4c85f729e8	-1.0584225876833617
132	0x3fea783e5c7c3671	0.8271781736709284
133	0x3fe53e1d50d2b058	0.6638323381971629
134	0x3fe6c6bd3e3ec8ca	0.7117601600387158
135	0xc0029cef7ce40788	-2.3266286618317658
136	0xbfe2324757c8401e	-0.5686375345703742
137	0x3fd876c3ee0a1440	0.3822488617518651
138	0xc00798c049d7c740	-2.9495855111098592
139	0xc00098303c610262	-2.0743107525925533
140	0x3fef96e4b845c647	0.9871696089814542
141	0xc0026b53b6d05de4	-2.302405765756463
142	0xbfdef26e68c89da1	-0.48354683144358473
143	0x3ff5de846ed1ebe2	1.3668255165964571
144	0x3ffcc527399c9eb4	1.7981331110440069
145	0x3fece2a1b83fb75a	0.9026650045977747
146	0xbfe04b00fcf34f5f	-0.5091557445943912
147	0x3ff6a60605f06a5f	1.415533087920856
148	0x3feb58f2a81dbc3f	0.8546078952330233
149	0x3ffa7f85876b5fdb	1.656133202535776
150	0x3fecb8048d727530	0.8974631083143887
151	0xbfd5ec53770b1947	-0.3425491964848288
152	0xbff464015924df8f	-1.2744153482617298
153	0xbfd9a66665d6a439	-0.4007812494770096
154	0xbfe552ac79cbcfb1	-0.6663420084791963
155	0x3fc8b8758c45d45b	0.1931292471814768
156	0xbffaaee4aa6b9b5e	-1.667698541359378
157	0xbffe6fd349f5cc65	-1.9023011101787912
158	0xbfc07a0aaf6a30ef	-0.12872441830803136
159	0x3fc92c1e9af4fe59	0.19665892187366543
160	0x3fe8a2d9d32ff0f5	0.769879257655275
161	0xbfb33c9dc3535548	-0.07514368075074629
162	0xbfa9deb71442f8f6	-0.05052730676969645
163	0xbff662f59268964c	-1.3991599768718457
164	0x400ae20886d574d7	3.3603678258792615
165	0x4004b671c1b4b455	2.589084161116754
166	0x3febbdea6db58b5e	0.8669330733067502
167	0xbfe09d4b2504a0f8	-0.5192008708009146
168	0xbfcf0f0d53ae090e	-0.2426468523590945
169	0x3ff3594256593539	1.2092917798029943
170	0x4003c7d0f984e5d3	2.4725665563280272
171	0xbfee249eb99599b5	-0.941970217198835
172	0x3fdf628f09beb07d	0.4903905482449387
173	0xbfe08e82b31822fb	-0.5173963067946653
174	0x3fd066badcfe18fe	0.2562701376085811
175	0xbfd3e0b1cd314bfd	-0.3105892661889696
176	0xbff80c1fa550da41	-1.5029598672532674
177	0xbfe8d004d54265d1	-0.7753929295751566
178	0x3fe7bc1d65313574	0.7417132355127891
179	0x3fbcf63a8880bb4f	0.11313215096082029
180	0xbfbf9bec2245276a	-0.12347293697999154
181	0x3fee425552e04dac	0.9455973261523716
182	0xbfdbc25caf43fd4c	-0.43373791805057205
183	0xbfe77fd61e116938	-0.7343550288453917
184	0x3fe11deca2b21a54	0.5349028756762189
185	0xbfd2f278792f4871	-0.2960492309040382
186	0xbff35581240a1b05	-1.2083751113693222
187	0x3fcb043f9093c44c	0.2110671478217533
188	0xbfe9a8a89a71b74f	-0.8018382088173243
189	0x3fdc54f9a2632f44	0.44268647058628496
190	0xbff3a5fefa7ed10b	-1.2280263695693658
191	0xbfdebb8cf3e2add3	-0.48019717995586325
192	0xbff8df5e98facae4	-1.5545335746543794
193	0x3fb6ba32b82c67aa	0.08877865787908826
194	0xbfe8589d2283c9d7	-0.76081711522266
195	0xbfdc1d3c234568a8	-0.439284357494794
196	0x3fe743f02c469638	0.7270432343254418
197	0x3ffcdbc524200e6d	1.803654805292264
198	0x3fec2e9a2624b1dc	0.8806887383448685
199	0xbff8dcf94e47f036	-1.5539486940242688
200	0x3fe5ec63e44f4e11	0.6851062258887756
201	0xbffb0674e6960d16	-1.689076328971003
202	0xbff0f3a4de9ea177	-1.0594834037857177
203	0xbfe47b382bcad11b	-0.6400414328877874
204	0xbfd794c99e408385	-0.36845627264306585
205	0x3fbefa4350a0fc58	0.1210062095496921
206	0x3ff482365f4ce3b5	1.2817901346845535
207	0xbff7ed9fb519d337	-1.4955136369946567
208	0xbff9916a850b2647	-1.5980019757283956
209	0x3fe0c0f000ff2c3a	0.5235519427745949
210	0x3fcab261bc303f4b	0.20856877983941965
211	0x3fe99b2e0ce967a4	0.8001928569967629
212	0xbff7b885bc644a32	-1.4825494154980672
213	0x3fefeb16c998cf76	0.9974473893584974
214	0xbfd257f7a30aa747	-0.2866190998271247
215	0x4007cde7729a7e9a	2.9755391076467506
216	0xbfe3deda3c41ee5c	-0.6209536721139091
217	0x3fe40696c6c0ced6	0.6258043176553325
218	0x3ff02fca3e452971	1.0116674835613504
219	0x3fcf1b4bf4ab4863	0.24302052923900694
220	0xbfd6d0e7231390bb	-0.3565004198592409
221	0x3fd71ce4bde22cc3	0.36113852065382107
222	0x3fe621b88658c616	0.6916163085899736
223	0x3ff19cfc548ff461	1.1008265784469347
224	0xc0027c0853745ca7	-2.3105627555738297
225	0x3fe28f60d5e9504f	0.5800022294956849
226	0xbffad5aa6e2da336	-1.6771644882048355
227	0xbff656ab24404a8d	-1.3961593071041165
228	0xbfbd21ec426040b1	-0.1137988721895933
229	0xbfed10447742749e	-0.9082357720650582
230	0x3ffaffcba5bc72c7	1.6874500726764141
231	0xbfbc6cb903fea7ab	-0.11103397700813271
232	0xbfe3db75bccbd6d1	-0.6205395400454227
233	0x3fd2c100c02fde2c	0.2930299641443266
234	0xbff743df3678cd54	-1.454070294171136
235	0xbfe4c9bfd5f59c72	-0.6496276072401896
236	0xbfe40c231bebd6de	-0.6264815850579131
237	0xbfee46cb21ba7304	-0.9461417826420022
238	0x3fd58b71de3a503d	0.33663603498394307
239	0x3ff52a906e0f7905	1.3228916453586532
240	0xbfe6a236605fa041	-0.707301319341248
241	0x40003400410fa408	2.0253911097429445
242	0xbfe495526882ff64	-0.6432277718777013
243	0x3fe1212a940ce30c	0.5352986232383912
244	0x3fe7b2e673cc9bd0	0.7405884038643027
245	0x3fd0b8642a26a6fa	0.26125434986407436
246	0xbfe30a91ae3bc4b5	-0.5950401690480677
247	0xbfde758463ff5032	-0.47592267766345053
248	0x3fd7fad80eece9b7	0.37468530137598627
249	0x3ff5a541e37b51f3	1.352846039391008
250	0x3fd3b4eee9f581be	0.3079182896381346
251	0xbfd400e0d0d9adac	-0.3125536002687237
252	0xbfd718da38316c38	-0.36089187133410716
253	0x3fcc810fd8929a4e	0.22268865656697517
254	0x3fdfc866e35a9ff8	0.4966065616849842
255	0xbf934fcff9a86bf7	-0.01885914765635374

bias f8 [1, 32]
0	0x3fb25c0da89747b8	0.07171712270726871
1	0xbfe7bc0c07bbd62d	-0.7417049552011058
2	0xbfd15c7eaa16409d	-0.2712704335217582
3	0x3fe7b4208cdaf801	0.7407381774025908
4	0xbfef5fad4c8ba72f	-0.9804293150930102
5	0xbfda717e9158ccfd	-0.4131771487620453
6	0x3fffe55ad45b857c	1.9934948249068318
7	0x3fb19e552ec12643	0.06882221595255893
8	0xbfdbcc08d68dc2d6	-0.4343282790423876
9	0xbfa99adae12580e3	-0.05000957487459503
10	0x3fd59910052165dd	0.33746719838162936
11	0xbfd5200642b81adc	-0.33007961764853433
12	0xbfe6f98cb785aa60	-0.7179626068512555
13	0xbffb1fc661960902	-1.6952575504261067
14	0xbff0024cc9071516	-1.0005615093844589
15	0x3fd7922e2d1dcecb	0.3682971420850946
16	0x3f8c98248210ffb3	0.013962063998519491
17	0xbfea468bf8058fb5	-0.8211116642164514
18	0x3feb0a2ebebd92eb	0.8449929929161873
19	0xbfddfa18a4742f80	-0.46838966426798123
20	0x3fc0233810ca7312	0.12607479877342392
21	0xbfd10e8b00eb3254	-0.26651263322563534
22	0xbfd64dcc86f9fb87	-0.34849847012804286
23	0xbf88a836c850b5cc	-0.012039592731606506
24	0x3fdd9c92ad9230ab	0.46268145513819076
25	0xbfd65a26ff15a465	-0.34925246153449613
26	0x3ff0d874bf02a89b	1.052845712789838
27	0x3fe3c843c2dc04ed	0.6181963735436092
28	0x3fdf4c23d40a30c7	0.48902221400272733
29	0x3fe020a36813cef5	0.5039841683160079
30	0xbfdb337ceb6d0832	-0.4250175761300198
31	0x3fe5af9c99fd343a	0.6776869781111892
