layers/layer0.npz (npz, 1660 bytes, 2 tensors)

weights f8 [8, 16]
0	0xbff03afb579b8532	-1.014399854866792
1	0xbff3cbf750f5a990	-1.237296406029234
2	0xbfd26774874893ef	-0.2875644036415101
3	0xc001ceabb37bd18a	-2.2259134313737308
4	0xc0052d7534e63269	-2.647196210169842
5	0x3fef77660981cd88	0.9833250222858831
6	0xc00d6ad903f94048	-3.677171736759224
7	0x401145265dd6e315	4.317529169312157
8	0x40000caa3f314bfd	2.0061840950888823
9	0xbfc062e918898eaf	-0.1280185098468016
10	0xc0004f194f85d09c	-2.038622494956213
11	0x3fe8bdfd08030e0d	0.7731919437869138
12	0x3ff97943190cf6ec	1.5921050051251155
13	0xc0032b24a2d3097b	-2.396065971436824
14	0x3fc9fe8f0194110e	0.20308101250714866
15	0xbffbc60a110b2d90	-1.7358494439857601
16	0xbfe302e149143851	-0.5941015651058114
17	0x40052844edb86ad4	2.6446627208618825
18	0x40141d613982409a	5.028691195082638
19	0xc00c3dfef0344614	-3.530271412463444
20	0xbfed45540c43b0bc	-0.9147129287280431
21	0x3ff85aa67ba3e014	1.5221314267819297
22	0xbfee81b971420b1f	-0.9533354961461987
23	0xbff82448f6faa805	-1.5088586471197243
24	0x3fe1171eb3c3d9e3	0.5340722571407323
25	0x4012277c87d30c4c	4.538560983902311
26	0xc014810e108d678b	-5.126030214911121
27	0xc006ccf7be6b3633	-2.8500819088428897
28	0xbffe0750ce9ff1fb	-1.8767860480576235
29	0x4003c810707b6295	2.4726876056341305
30	0xbff59c00c325a738	-1.3505866644795343
31	0xbfd81497a44c0d9e	-0.3762568573440265
32	0xc00786e72e081218	-2.940870627995775
33	0x40098ed743607be5	3.1947465194530076
34	0xbfd4f5f6c6963630	-0.32751244920004563
35	0xbff0673a1490b239	-1.025201874096764
36	0x3ff01d88f0ecfc4a	1.0072106753502958
37	0xbfe31e5ff030293d	-0.5974578562902831
38	0x3ff65bc27b6e302c	1.3974022695065385
39	0x4005a7b9da039a39	2.706897452578485
40	0xc0082c4acdb09931	-3.0216270513075405
41	0x3ff2e9279666e756	1.18192251921433
42	0xbff2260bed6f4871	-1.1342887186806616
43	0x3fb13cb517337ebe	0.06733257118639366
44	0xbfe6fb74ff14792c	-0.7181954366713277
45	0x3ffcb7f80dc87ee3	1.7949142969518384
46	0xbfed9a2401be610f	-0.925065997510531
47	0x3ffa90ddca38eb92	1.660367765360864
48	0x40082d388a79b236	3.0220804994953836
49	0x3fe1c63e860122d4	0.5554497353815244
50	0xbfa9b838f9de7f12	-0.05023363161239848
51	0x4004c0de19270d7f	2.594173618797583
52	0xbfc00f24a4019ce4	-0.1254621315776837
53	0x3ff4f24cbfb7e05c	1.3091552247042477
54	0xc0030eab3cc52c30	-2.382162546889525
55	0xc01112293abe638f	-4.2677354029373324
56	0xbffa122a9957041a	-1.6294351568069545
57	0x3ff7a74c57d7cda9	1.478344290863655
58	0xbfe01fdef914c8d0	-0.5038905014864898
59	0xbfbb70461a8d4861	-0.1071819128822269
60	0x3ffbc427b3c117e0	1.73538942543518
61	0x3feb302f7bfca641	0.8496320172900554
62	0x3fe2c137d1478f9a	0.5860861861697118
63	0x3ffa5a7144a8b668	1.6470806772225846
64	0xbfce2408c93a6437	-0.2354746801909486
65	0x4000f0bda9b8cf2c	2.11754925341838
66	0xc002ffeea513b91b	-2.3749668976444247
67	0xbfecbeb82d6c169a	-0.8982811820175869
68	0xbff01cb4bbeaf23e	-1.007008298925157
69	0x400b29cbd7339d68	3.3954083263994796
70	0xc0004f46397156fd	-2.038708161136013
71	0x3fe59e368a56d16e	0.6755631162582583
72	0xbfee01395fe4890a	-0.93764942864462
73	0x3fd11d978683c105	0.26743114601323753
74	0x3ffd70dd74888bc3	1.8400549461446054
75	0xbff54760082d3724	-1.329925567569668
76	0x3ff4288ddd9fc9e4	1.259900918693
77	0xc00d93a53cffe867	-3.6970925107571477
78	0xbffc532171c4bdcf	-1.7702955669482099
79	0xc0095942de068810	-3.1685845704787496
80	0x4004fb03fdf4229f	2.62256620789806
81	0xbff6f775d6a2b483	-1.4354151138498146
82	0xc0021f84b3984d3f	-2.265389826856022
83	0x3fd1a022e605f83c	0.27539894545759913
84	0xbff08366b897d397	-1.032080384318055
85	0xbfee3807451c36f8	-0.9443394040879118
86	0x3ff03c133b54b9ae	1.0146667783370549
87	0x3fdda19131769cbf	0.4629862769165349
88	0x40043136d34cf353	2.5240303523882317
89	0xbfe32c252561af9e	-0.5991388063534833
90	0x400f64769197f356	3.924054276895201
91	0x3fdbbdcfc5ef7ff4	0.4334601815189665
92	0xc00f53dd471c4eda	-3.9159493976129456
93	0xbff067310584372a	-1.025193234966944
94	0xbff543a12dd8210f	-1.3290111342230977
95	0xbff5eced4114c857	-1.370343450759284
96	0x3fe151979fe3b0ea	0.541209995540638
97	0xbff460a6ac66f568	-1.2735964521846999
98	0x3ff2ec5e38c92c1b	1.182707044429441
99	0xbffe3fae35f5ee76	-1.8905469997252147
100	0x3fcc4da5316ccf6b	0.2211195460637286
101	0xc00de7d7899f8a8e	-3.7382040740788574
102	0xbfd01d81b00af0df	-0.25180093948053
103	0x3ff5d8ebf481b915	1.365459399322906
104	0xbffac1c7718f363d	-1.6723093448557755
105	0xc0029ed25ad57dd1	-2.327549657478564
106	0x3ff5434c280972bb	1.3289300502721477
107	0x400b1094bdafaf3e	3.383096200870482
108	0xbfeb30e9d1c62acf	-0.8497208687925538
109	0x3ffa69adee752b0b	1.65080063960585
110	0x3fe523c3dbf73d13	0.6606158539015347
111	0x3ff1e4accb536d03	1.118328851930358
112	0xbff1bc5e159bdc74	-1.1084881633849166
113	0xc003901d7b72d401	-2.4453687328737037
114	0xc0009cb1004578d1	-2.0765094777299073
115	0x3ff143bd00766b2c	1.0790376680440188
116	0x3ff3ad5d4d3fe4ef	1.2298253076135628
117	0xbffa6ae5eb9f6080	-1.651098175430917
118	0x401ae178aca73fc3	6.7201868989067775
119	0xbfca895c67db23b4	-0.20731692381948863
120	0x400679048845ca85	2.8090906759546805
121	0xbfe962712d349159	-0.7932668574253895
122	0xbffcc77c46af7358	-1.798702503313697
123	0xbffe7bfb8d468aa6	-1.9052691954208654
124	0xbfe5cc96c78a7210	-0.6812242409974392
125	0x40033639ef59ebb4	2.4014776896778702
126	0x3f9b7f5d17e49bb6	0.0268530412514811
127	0xbfd456218b43fee6	-0.31775702095181513

bias f8 [1, 16]
0	0xbfd200c0f62ce6ca	-0.28129600563589163
1	0xbff96fab92e707e0	-1.589763234937429
2	0xbff4cf7f81c58ec6	-1.3006587094504751
3	0x3fe28fea16846202	0.5800676765239248
4	0x3fbc0230bf9bd945	0.10940842321347073
5	0xbfe069b4b398e49b	-0.5129035480269012
6	0xbfc04224932aa09b	-0.1270185202204218
7	0xbff321c31e9cada4	-1.1957427211553773
8	0xbff8146b5ae1f8a6	-1.5049851942162973
9	0xbfa21d85470599ad	-0.03538147441831838
10	0x4002f6fa8de6b193	2.370595081904136
11	0xbff01d9df1dfd57e	-1.0072307060448504
12	0x3ff9198c9b01d861	1.5687376074761448
13	0xbfd538bdfe09d754	-0.33158826645318595
14	0x3ff198262464f440	1.0996457502035497
15	0x3feccb721b9e6bac	0.8998346843176157
