layers/layer6.npz (npz, 612 bytes, 2 tensors)

weights f8 [8, 2]
-2.524068838354581 -5.362638426903617 2.2536145981679603 -2.4356208906744423 0.30338787227800873 0.6922531527397526 -2.614139768527154 6.957530037071246
-6.621193879032711 0.4174770511425191 1.0733388431967548 -5.700946437697852 -0.3119728414668907 0.5158752092276873 6.652243776498495 -2.5706484064573387
00000000: 62af cc00 4b31 04c0 b24b df7c 5773 15c0
00000010: 485b 2717 6707 0240 7f35 37ce 267c 03c0
00000020: fff8 5bf7 b46a d33f 823e 7215 f026 e63f
00000030: 23fa 671c c2e9 04c0 7aa2 08c1 82d4 1b40
00000040: faae 8b3f 1a7c 1ac0 7a35 5faa f1b7 da3f
00000050: 90e7 d059 652c f13f d1a3 28e7 c4cd 16c0
00000060: 8fca d5ef 5cf7 d3bf 0267 0eba 0c82 e03f
00000070: 8152 e4ca e59b 1a40 83fd 991c b090 04c0

bias f8 [1, 2]
0.2711305125386185 1.7628330054478822
00000000: f744 13cb 335a d13f 2654 ab61 9034 fc3f
