layers/layer4.npz (npz, 4732 bytes, 2 tensors)

weights f8 [32, 16]
-0.7219245010642016 0.04422993972284933 0.06437154149654782 -1.2985746864147032 -2.2749247314273933 -0.9063213973896806 -0.5990779689659583 -3.2836625347973034
1.297805527212738 0.33871201506800763 4.011682016257715 0.7761165100774909 0.5924676426638726 -0.35326223567254716 1.3501884232985215 -0.9050613154908046
-1.428595220485732 0.6949011928531669 0.5253871488327616 -0.16182803923910247 0.668466875777323 -2.7830990987468835 4.3702055590163695 -0.7169892211166634
0.3831919648304278 -0.3408796871163345 0.41636679764204404 1.6319580093334471 0.08667455109757306 0.4746548468727467 0.19487013578975196 1.0516793383500955
0.7230832094334466 0.29327479564557113 1.2408491862510227 0.2710524446302621 0.8313573216516846 -0.7675507792039604 1.1359936953909022 2.6192916622290383
-0.9411189286428345 0.7112455525928002 -1.806571408085141 1.0288364094886768 3.121360280476554 0.38023794804873223 -1.0604409368616514 -1.4068119199275413
-0.5389778559338982 -2.491639753911036 -1.2944369097411268 -1.0293160945495445 0.46644453273507386 0.009967457635153514 1.7764134782864187 0.32432286891470985
-1.8762001680737435 0.2539488938262165 2.8527816668433825 -1.1862587430999585 1.3095686132420354 -2.7381589287971204 -1.9246306721442135 1.0217501052218871
-0.5734961935248662 0.3519901232137949 -1.0013775574631234 0.6636493390135267 -1.0555543769213633 0.671565128547805 0.05264882210966048 0.17987172563247286
0.609651614728098 -0.22085217463740572 0.10530445443202681 0.7399901282184888 0.6186598342331117 1.4238364541074628 -1.5176165176347203 -1.1651486797972126
0.11028074287517413 1.0282254901426227 1.2760251404744325 0.18045372571782736 0.35606655994044606 -2.8507163351851763 2.291785158551271 1.0401004271899648
1.0728329147277524 0.36285695176835164 -1.907960524028863 -0.740202543454528 -1.4836476250599597 1.6823510835210422 -0.39463080119337257 2.4211805971782225
-0.10953183510139132 1.6797590112785348 0.5746992791393585 0.2047848587603925 -0.33188235652732107 0.8808077197441694 0.5990980328694223 0.05655623447389061
0.22880157257092648 1.0694441573059559 1.9955840401061093 -1.5045759279667315 0.2644375847494551 -2.7983665845418337 0.215854836739507 -2.5077199296522306
-1.5708862400623176 0.42474060755012705 0.26435435568492033 -0.12694260889258174 0.11926081966692982 1.4948913197066251 -0.553336468347766 -0.9535040154597428
-0.009170469224773808 -1.253430035940871 0.5968931505903918 0.6701675025213122 1.314014136086015 1.9020240813398397 1.382296152690152 -0.34337870516945007
-0.8473704749188945 0.9298139214600337 -1.138417045618961 -0.8468116827166077 -1.3883493264480928 -1.3128966288727428 1.0372857113147584 1.2496488192232431
-0.3188573441617314 0.5893961528702079 -1.5670558212862724 -0.04910938963582527 -0.3848857623994678 -0.08079301375617301 -1.0273131174449597 -0.9394344505095639
0.29170028617421734 0.13421259081077078 -0.9326258310004204 1.0244837124187054 -1.2884627514899545 -2.041492351982481 -2.0154344599490424 -0.6688192811782968
0.3750899676728681 -0.6689690151982965 0.802367498690217 -1.592292619253306 2.2728399520474363 -3.4741780234686384 0.18779236638352254 1.3041034538993956
-0.4654717827962911 -1.7950611879506526 0.7100051143983291 -1.0716447537746914 -1.182807392142094 -1.32006423082021 -0.6041619947008124 0.1192838824439584
2.1291925528108315 -0.6247783444043303 0.05986493078124028 -0.17980719297999928 0.763570470518166 -0.9872342470489306 -0.9674480409684368 0.4549499268978258
-0.24940392739778908 1.4545099454881067 0.05962803503317028 -1.8380344195144733 -1.977767683966246 -0.34540031081599554 -0.09502188249890407 -0.5194900548226575
-0.17711420021173824 -0.897324592256141 0.38663649594285304 -1.4345994755753784 0.26023695883522535 1.7627407194329792 -1.3386460897490904 0.09291380668332301
1.0205557855770901 -1.1436565807302537 1.5953726178387069 -0.033633468870805594 0.14470443595142063 1.4469075298177276 -2.1027494993437617 -0.2573744738329329
-0.30453028919122405 2.2502239973447047 -2.4540713891734423 0.7979625771278092 -0.24144715186982235 -2.4989635162757113 1.5956370638300394 -0.2311177986939224
-1.8259464892843358 0.039017558868976995 -0.5360983216717315 0.40905012082888204 -0.12457027149949007 1.948726997324371 -0.23224526872955517 1.5217180364141711
-1.9250310325041813 -1.1813134458248604 -1.8551409629404607 1.6306460975522683 -1.5666890788302446 -0.29988664272893406 0.4179454356343048 -1.1473971660020783
-0.8990115807222885 0.7056557490097769 0.29867672085371316 -0.49328351380054525 1.0036975482964163 -2.274323445091432 -2.6793131820891185 -2.7322413301595883
0.5067801564623038 0.3403867161266478 0.2676010093435989 -0.7910426884866808 -2.0151018908661156 -0.19973170685292363 1.9332041144938823 0.09335415566267426
-0.40817653043844737 -2.0774678555491697 -0.5949776868094293 0.9564709975276652 0.05578612340703299 0.8286672077961185 0.0007391666493921838 -0.0042226320862136495
0.9092200730946518 1.6333245220632915 0.6915001205499983 -0.49454489917902317 0.7401344813005519 1.3119196845775418 0.9370318102633266 -1.5294249466277707
00000000: 430f 4869 011a e7bf 7835 3a81 4ea5 a63f
00000010: d351 8541 a77a b03f a008 1940 f6c6 f4bf
00000020: e7bc d2bc 0b33 02c0 b284 2ebb 9500 edbf
00000030: 07d0 8e8f a52b e3bf 6570 f0dc f044 0ac0
00000040: e125 7fba cfc3 f43f b4ad de28 75ad d53f
00000050: e71c d75e f60b 1040 2c64 954a f2d5 e83f
00000060: dabe a5b3 7ef5 e23f 1f07 4835 d99b d6bf
00000070: 4b14 182d 5f9a f53f 3d0c dd25 43f6 ecbf
00000080: 7e54 73a9 86db f6bf 072f 286d a13c e63f
00000090: 7136 bfb5 f8cf e03f bfca 0dfc c7b6 c4bf
000000a0: 5f88 3da5 1464 e53f d628 d575 c943 06c0
000000b0: 4017 832a 177b 1140 87fa 0861 93f1 e6bf
000000c0: cb58 4297 3786 d83f 7d43 0209 f9d0 d5bf
000000d0: 31d2 c0ec c0a5 da3f c984 6800 801c fa3f
000000e0: f10b 5caa 4d30 b63f 9834 0db9 be60 de3f
000000f0: 678f 172e 81f1 c83f 347b c1b6 add3 f03f
00000100: 39b5 1966 7f23 e73f e27b 02a6 03c5 d23f
00000110: 3176 23ad 84da f33f 5a05 4c5a ec58 d13f
00000120: a917 79ab 7a9a ea3f 1469 d6a6 c68f e8bf
00000130: 64a8 a2b9 072d f23f 70ac df2f 4ff4 0440
00000140: 6c5c 8571 a51d eebf 03f8 7908 86c2 e63f
00000150: 61d4 b96b b7e7 fcbf c401 bb2a 1d76 f03f
00000160: 0671 1dbd 8bf8 0840 2251 e48b d155 d83f
00000170: f990 72ea 90f7 f0bf 5f63 3b37 4d82 f6bf
00000180: 2a23 107d 4e3f e1bf ecb0 c3d2 e0ee 03c0
00000190: d32c 217a 03b6 f4bf 4763 3527 1478 f0bf
000001a0: 6fb0 5f2b 3ada dd3f 49ba 8984 d169 843f
000001b0: d29e 168a 306c fc3f 4659 d5b4 b4c1 d43f
000001c0: dd05 aa77 ea04 febf c9b1 75dc b240 d03f
000001d0: fcc3 cd31 7fd2 0640 8e55 a372 eafa f2bf
000001e0: c0e1 db37 fef3 f43f e278 53de bfe7 05c0
000001f0: 6bce 1b88 49cb febf 10cd 69a3 1659 f03f
00000200: b33b 72b0 145a e2bf f7f7 ed94 0187 d63f
00000210: 240a 4479 a405 f0bf 5667 e289 9d3c e53f
00000220: 3c6e 80fc 8ce3 f0bf 44e6 0727 767d e53f
00000230: 4f90 4452 c9f4 aa3f e784 8865 0906 c73f
00000240: a7be 661a 4482 e33f c1b8 a851 e244 ccbf
00000250: 159f e893 3bf5 ba3f cff5 01c7 ffad e73f
00000260: ed28 6cb5 0fcc e33f 12e8 d3bb 08c8 f63f
00000270: bcc4 f141 2848 f8bf 404e 2bf1 72a4 f2bf
00000280: 7b07 07d8 5b3b bc3f d937 5192 9c73 f03f
00000290: 4762 7356 996a f43f 4820 3391 1b19 c73f
000002a0: 1d2e 8965 cbc9 d63f b158 ae5d 44ce 06c0
000002b0: b17c 0b75 9355 0240 6b62 7558 40a4 f03f
000002c0: b53f add8 522a f13f 1a2a 3e5d 0c39 d73f
000002d0: 3435 4c9d 0187 febf f3b3 913e bdaf e7bf
000002e0: c4ba c64a 05bd f7bf 04cf 41f8 e8ea fa3f
000002f0: 04ab 478c a141 d9bf c3b8 d4ee 935e 0340
00000300: 899f a141 470a bcbf 42a4 29fc 4ae0 fa3f
00000310: b706 1ebe ef63 e23f 3bc2 8be7 6336 ca3f
00000320: 55df d97e 8f3d d5bf 83b2 cbab 932f ec3f
00000330: 0fb5 48a3 cf2b e33f 8589 e652 f0f4 ac3f
00000340: 8095 bbb3 5e49 cd3f 1170 087a 711c f13f
00000350: ffcd ca87 e9ed ff3f 9674 4f35 be12 f8bf
00000360: c041 959e 8bec d03f 759c 1605 0e63 06c0
00000370: 9863 3d9c 21a1 cb3f ec11 6b77 cf0f 04c0
00000380: 6ddd 2c9c 5922 f9bf 7980 ad3a f32e db3f
00000390: 5b33 0e88 2eeb d03f aece d4c8 a73f c0bf
000003a0: d1e2 2988 e087 be3f 826d 1329 13eb f73f
000003b0: 029c 67ae eeb4 e1bf 0323 60da 1a83 eebf
000003c0: f667 468b f7c7 82bf d60a 43a7 0c0e f4bf
000003d0: 94bf 1faa bf19 e33f 1b79 451e 0372 e53f
000003e0: bd89 cfaf 3306 f53f e4f1 98cd b06e fe3f
000003f0: 9f0d 1392 e21d f63f 8b1e 36ad eaf9 d5bf
00000400: abec abaf a81d ebbf d729 0120 09c1 ed3f
00000410: 2e47 c2ca f436 f2bf 126f 64d0 1419 ebbf
00000420: 7e4a 88c8 ad36 f6bf e197 40e5 9f01 f5bf
00000430: 9e47 ebe6 b898 f03f 12c8 a0c2 8ffe f33f
00000440: 3ee6 50a2 2868 d4bf 80e7 1e52 55dc e23f
00000450: 37e5 f61f a912 f9bf e624 d3ac dd24 a9bf
00000460: 52e9 8ce4 f7a1 d8bf 82fa d3d7 d9ae b4bf
00000470: b7d8 22e1 df6f f0bf ed93 35d6 d80f eebf
00000480: e188 56ad 37ab d23f 4131 1fd0 e02d c13f
00000490: f1a6 7120 12d8 edbf d8f7 8108 4964 f03f
000004a0: 6b37 3c1e 8b9d f4bf 1964 36f1 f954 00c0
000004b0: 52b3 251a 9c1f 00c0 590a 73b1 f766 e5bf
000004c0: 519c 0d5a 7901 d83f 600c 4ab5 3168 e5bf
000004d0: 04ee c79a feac e93f 9cae 55d3 077a f9bf
000004e0: 05b0 78b6 c62e 0240 df3c fad8 1dcb 0bc0
000004f0: 7e20 078c 9409 c83f a793 5195 9bdd f43f
00000500: 6489 1429 4aca ddbf 4712 8914 92b8 fcbf
00000510: 8bac 4aa5 5cb8 e63f bf46 26f8 7425 f1bf
00000520: 3b7a ab71 c7ec f2bf 0ae0 bfab fb1e f5bf
00000530: 553c 1789 4b55 e3bf d265 0976 6389 be3f
00000540: 98ac e91a 9608 0140 63e6 8e27 2ffe e3bf
00000550: 48f5 c3bf 9da6 ae3f dda2 b70e ec03 c7bf
00000560: ad23 e256 2b6f e83f 781f 9246 6c97 efbf
00000570: 113d 1198 55f5 eebf 0b00 564c e61d dd3f
00000580: 696f d5c7 77ec cfbf 2640 7938 ac45 f73f
00000590: 92cf c8d8 9087 ae3f c8ca 8bc7 9668 fdbf
000005a0: f287 1bba efa4 ffbf 6ce8 bee7 091b d6bf
000005b0: b7b5 bca5 5a53 b8bf 1ef0 819b a99f e0bf
000005c0: be86 c898 adab c6bf 865f 3410 e2b6 ecbf
000005d0: 0def 6000 a7be d83f af47 6794 1ef4 f6bf
000005e0: 4019 daea b8a7 d03f adac d49c 2f34 fc3f
000005f0: ff3f 8629 186b f5bf bd3e 0d01 33c9 b73f
00000600: 4bc1 ac4d 3254 f03f 4a77 c1d7 6a4c f2bf
00000610: 85d1 2870 a586 f93f 28c9 b3f1 6738 a1bf
00000620: 5ead ffc9 ac85 c23f db73 8e82 8826 f73f
00000630: 07e5 5a54 6ed2 00c0 8802 fcc8 d278 d0bf
00000640: 48ef 2d9c 6c7d d3bf c028 6a70 7500 0240
00000650: cf64 342e f0a1 03c0 2444 86d0 e888 e93f
00000660: 3c22 7f82 bde7 cebf 2769 8295 e0fd 03c0
00000670: bef7 d6ba ba87 f93f f2fa 749d 4495 cdbf
00000680: 488e 7baa 1337 fdbf e6bf 9f06 1cfa a33f
00000690: 8da8 e0aa b727 e1bf 26a2 d88e e02d da3f
000006a0: 10e7 245a d6e3 bfbf 7f72 255c fc2d ff3f
000006b0: cb0d ec84 36ba cdbf 801d 0203 f558 f83f
000006c0: c83f 0657 edcc febf 1649 82ed a8e6 f2bf
000006d0: a2c9 544a a8ae fdbf 6d64 c55c 2017 fa3f
000006e0: 6338 4991 2811 f9bf e2ca c1be 5731 d3bf
000006f0: bbf4 6336 9ebf da3f 3b08 7821 bd5b f2bf
00000700: 06ae 3def b3c4 ecbf 6f67 875d bb94 e63f
00000710: 812a 09f7 841d d33f c279 db03 f591 dfbf
00000720: c522 1029 250f f03f ce8c 897d d031 02c0
00000730: 0284 e6bf 3b6f 05c0 0f85 ae57 a1db 05c0
00000740: 328e c804 8b37 e03f 376f 705d e5c8 d53f
00000750: 6278 e0fb 5f20 d13f 6649 99c1 3850 e9bf
00000760: 9605 7bbd ed1e 00c0 202b 74fe ce90 c9bf
00000770: dee6 0370 67ee fe3f 3152 84d5 0ee6 b73f
00000780: 9695 4e74 901f dabf 7899 9077 a79e 00c0
00000790: 8347 56a5 0e0a e3bf af85 be10 699b ee3f
000007a0: c928 35af ff8f ac3f 1910 9817 7184 ea3f
000007b0: b27a ef4a 9438 483f 7eca 692b c04b 71bf
000007c0: 42dd d9b1 5418 ed3f 4544 e0e4 1822 fa3f
000007d0: 5327 5edc c420 e63f 5129 18a6 9fa6 dfbf
000007e0: 4a7d fa81 2eaf e73f acd3 c37e 9ffd f43f
000007f0: b690 8c22 2afc ed3f c13e f74a 8678 f8bf

bias f8 [1, 16]
-0.9624384847733073 -1.0682636848361007 -2.237809636460548 -0.7930972375881752 0.3524550756051428 -0.26214613699976974 1.1615953148938987 1.9960792736833772
1.8906372440715593 -0.43984648430399026 -0.316117026216945 0.9876499049139907 -0.15029493130781402 0.13804379182657983 -0.29022508072680714 -0.25946532932084104
00000000: b76b 10cb 4bcc eebf 1002 5ea9 9b17 f1bf
00000010: 732c 1abd 08e7 01c0 27a7 3f75 0d61 e9bf
00000020: 8421 c2bb 9f8e d63f a8f3 4b97 00c7 d0bf
00000030: 747f 0af8 e495 f23f bc18 0bd2 f0ef ff3f
00000040: d030 bed6 0c40 fe3f 6528 56de 7126 dcbf
00000050: 1be0 53e8 423b d4bf 6519 30f9 d39a ef3f
00000060: 4c5e 5c43 dd3c c3bf 9ace a741 6bab c13f
00000070: 93d6 8c37 0c93 d2bf 9b3f f877 149b d0bf
