layers/layer4.npz (npz, 4692 bytes, 2 tensors)

weights f8 [32, 16]
000000 00 65 13 54 65 1a e7 bf 97 a5 bd bd 9f 4a a2 3f
       -0.7219721452812848 0.035725585853309365
000010 cd 54 2d ed 77 7b b0 3f 49 f9 0f 6b 68 a5 f4 bf
       0.06438397922950685 -1.2903827840924171
000020 7e 11 0d 30 b8 33 02 c0 bc a6 eb 28 85 0e ed bf
       -2.2752536539066446 -0.9080224799374359
000030 4c ee c3 6d a9 15 e4 bf 59 fe 7e aa cc 67 0a c0
       -0.6276442664961421 -3.300683338165794
000040 2d 5d c3 51 eb b7 f4 3f bb 88 8a da 6c 81 d3 3f
       1.2949021524307895 0.30477448789509837
000050 84 41 b2 a2 9f 36 10 40 ad d7 be 74 40 d4 e8 3f
       4.053343336229208 0.7759096412835241
000060 ea 35 b4 c4 59 50 e3 3f 5e 0f d6 ee d9 1d d7 bf
       0.603558429896734 -0.36119697879643364
000070 f9 41 4e 21 bd 45 f5 3f e6 ac 3d b7 54 f0 ec bf
       1.3295260716441801 -0.9043372706340989
000080 4c 78 ee 35 b3 de f6 bf c1 17 29 d8 1b 95 e6 3f
       -1.4293701273632164 0.7057017537961131
000090 cb 12 68 b3 35 d0 e0 3f 80 1f 26 dd 41 b1 c7 bf
       0.5254162315401002 -0.18509696291243571
0000a0 82 1b 76 32 b8 8f e6 3f 84 e2 2e 8d 2f 51 06 c0
       0.7050438867162117 -2.7896414785321344
0000b0 ec ab a1 23 a1 b7 11 40 9f ee 57 8f 11 23 e6 bf
       4.429325634710931 -0.6917808341672361
0000c0 9e 17 62 bd 60 6b d8 3f e9 a6 1d ca 29 83 d6 bf
       0.3815538262791679 -0.35175556886552656
0000d0 9e ce 2d 68 42 96 db 3f 49 06 e3 b2 11 1b fa 3f
       0.4310461060879137 1.631608675743694
0000e0 6e 78 fb 05 37 a0 b2 3f d4 58 1c dc 76 97 db 3f
       0.07275718589832689 0.43111964698017613
0000f0 ce 1a 8f 6e af 06 c1 3f 26 5c e3 c6 54 ea f0 3f
       0.13301651857746893 1.05720975580858
000100 ac bc 93 37 76 22 e7 3f f9 43 ec 86 17 75 d2 3f
       0.7229567609300793 0.2883967225653233
000110 5b 45 08 2e 55 da f3 3f 66 33 02 6b a6 0b d0 3f
       1.240803890050606 0.2507110638624027
000120 4b 38 23 9f 81 ff ea 3f c0 51 a1 a2 e4 db e7 bf
       0.8436897380977454 -0.7455924202318371
000130 8a a1 39 2c 26 8d f2 3f bd 2e d9 77 04 ee 04 40
       1.1594602325004382 2.616219459834467
000140 57 8d ce 2b 22 ea ee bf 30 c1 6f 38 9d a2 e6 3f
       -0.9660807471849847 0.7073503591800883
000150 98 9d cd b6 78 a9 fc bf ce 3b 00 5d 1a 74 f0 3f
       -1.7913748875379039 1.0283454544876238
000160 05 b6 4e 20 3a 27 09 40 fc 86 c0 d0 d2 bc d7 3f
       3.1441538356800742 0.370899871692117
000170 52 78 f7 40 d5 14 f2 bf e3 1b 0b cf 28 80 f6 bf
       -1.1300861871491361 -1.4062889182694043
000180 d0 4b 4d 25 b4 41 e1 bf d6 bd 80 ae d4 2b 04 c0
       -0.5392704704812505 -2.5214017518080523
000190 f7 c0 6d ed 26 b5 f4 bf 03 da e4 66 ba 42 f0 bf
       -1.2942265772399517 -1.0162910479826912
0001a0 95 09 89 a3 e6 69 df 3f a5 a2 c3 c6 69 8e 89 3f
       0.4908386799835623 0.012478662851621644
0001b0 3b f3 91 fe c4 0b fd 3f 78 37 27 04 68 de d5 3f
       1.8153734153886052 0.3416996040876863
0001c0 59 8a ae 7b 5c 2e fe bf e4 76 52 f5 ef 4a d0 3f
       -1.8863186675377135 0.25457381207693985
0001d0 18 9a 8e a0 e4 d6 06 40 65 16 f1 e7 2d f7 f2 bf
       2.854928259231439 -1.1853465137695818
0001e0 4a 4e 64 ac ed d5 f4 3f 4f f3 2a 4a d8 3a 06 c0
       1.3022286161475614 -2.7787328523976735
0001f0 18 71 42 f7 bf bd fe bf e6 2d 36 2d 74 46 f0 3f
       -1.9213256510329924 1.017200638397179
000200 10 db 4d a9 d1 57 e2 bf e1 9b 4f a5 b3 fc d5 3f
       -0.5732200915070695 0.3435486902584995
000210 10 43 e4 87 08 07 f0 bf 9c 8e 3c df 70 28 e5 3f
       -1.0017171200053703 0.6611866340721977
000220 4e fe c9 df 49 ec f0 bf b0 5c d2 65 2d a7 e5 3f
       -1.0576876394042247 0.6766573895173646
000230 cc 78 a8 5f ca 75 af 3f 35 55 2f 5a 38 ac c7 3f
       0.06144554536534627 0.18494324115332864
000240 f3 d0 ab 5e ac 6e e3 3f b5 61 cb 5b 15 70 cc bf
       0.6072599267049824 -0.2221705148902068
000250 ce f7 e4 54 ce 2e bf 3f 4d e0 72 eb 8a ab e7 3f
       0.12180795261971797 0.7396902655227763
000260 11 8b 63 b2 37 15 e4 3f 36 44 3c 51 6e 1f f7 3f
       0.62759003488131 1.4451735661753111
000270 68 49 9a b1 7b 42 f8 bf 3a 3a a0 cf 51 a0 f2 bf
       -1.5162312448124684 -1.164140521086337
000280 0c 99 c9 ea 38 55 bc 3f 6e f1 3a 8d 60 63 f0 3f
       0.1106753895961427 1.0242620007330419
000290 db 7c 0e a9 39 67 f4 3f 2d 00 46 87 7d a5 c7 3f
       1.2752014735959196 0.18473786454342314
0002a0 e2 92 8c 80 98 fc d6 3f d0 9d dd 8b 08 cf 06 c0
       0.35916721871971735 -2.851090519619653
0002b0 98 a1 ff 4a 98 61 02 40 5c 82 a4 7a 2b 93 f0 3f
       2.2976537570249995 1.035930136749946
0002c0 6e 90 69 a2 77 31 f1 3f d4 e8 00 3e 35 df d6 3f
       1.0745769829018417 0.3573735337737507
0002d0 ad 4a ca 74 04 ce fe bf e8 0a 90 51 6b a8 e7 bf
       -1.925297218524672 -0.7393089859982327
0002e0 24 d3 39 61 47 cb f7 bf 8e be 65 ce 63 bc fa 3f
       -1.487128619946085 1.670993620147701
0002f0 6d 42 5c 44 c1 77 d8 bf 64 d7 15 67 a8 6b 03 40
       -0.3823092620450897 2.4275672963657815
000300 5b d5 d0 f3 ca ef bb bf 7a 87 26 7a 7a e8 fa 3f
       -0.10912769749196143 1.6817574283126917
000310 5d 25 25 bd 1f 5a e2 3f 1b 4d 4c 6f 17 c7 c6 3f
       0.5735014623871099 0.17795079168772862
000320 d0 e1 1c 93 fb 0d d5 bf 72 27 6f d5 86 29 ed 3f
       -0.32897843710409536 0.9113191765438684
000330 40 10 3b 76 4b 06 e3 3f 65 41 e2 3b 18 c3 a2 3f
       0.5945184048837362 0.03664470416072411
000340 be b9 a5 34 69 9e cb 3f 4c 9c 48 f2 5e bd f0 3f
       0.2157718188349928 1.0462331260876168
000350 a7 eb 2f c2 f9 43 00 40 a4 e3 f8 b7 58 11 f8 bf
       2.0331912203668767 -1.5042349993147832
000360 86 35 9b 63 ac 4c d2 3f 64 f0 4e 91 d2 69 06 c0
       0.2859297726361877 -2.801671157094505
000370 9e 9f 8d 5b 66 0f c9 3f 44 e1 63 cd 0e ff 03 c0
       0.19578246565219798 -2.4995399519067707
000380 eb 85 79 12 bb 20 f9 bf e4 22 44 3b 80 70 db 3f
       -1.5704909059207874 0.4287415102740353
000390 5b 57 58 78 b3 e2 d0 3f 18 85 3b cd 16 ed c1 bf
       0.26383673431825166 -0.14004788418882508
0003a0 dc 15 c3 99 e6 bf bc 3f 41 ca fd 36 15 0f f8 3f
       0.11230317357975345 1.503682341394452
0003b0 aa 9c 36 3c 50 d8 e1 bf 06 5d ad 1d 82 7a ee bf
       -0.5576554466287196 -0.9524546222336603
0003c0 32 7d 28 24 06 f4 8b bf 0b 2d ec 90 b0 56 f4 bf
       -0.0136490325722308 -1.2711644803083029
0003d0 dc 5b 3b d2 86 b7 e3 3f 35 72 72 5c 71 70 e5 3f
       0.6161531549540729 0.6699759297949358
0003e0 5c 3a 51 5d 7a 3f f5 3f 6e 96 5a 82 8a 34 ff 3f
       1.3279975552756218 1.9503274051616262
0003f0 7d ee 25 2e 24 f8 f5 3f f9 24 9a d6 86 bb d5 bf
       1.3730813791907217 -0.3395707221721547
000400 a6 a4 9d bf 1f 19 eb bf 93 fa 4f f4 f5 f1 ed 3f
       -0.8468168966766327 0.9357862254835986
000410 f2 9a 55 50 f4 39 f2 bf e9 08 3a 96 53 50 eb bf
       -1.1391490114271474 -0.853555482303162
000420 22 8c 32 1c 04 69 f6 bf 08 33 54 06 7f ef f4 bf
       -1.4006386853659554 -1.308470749590187
000430 94 c5 8b f6 6d 1e f1 3f 01 07 37 62 1c f5 f3 3f
       1.069929087705849 1.247341521885062
000440 ec c6 1f a7 1c f2 d4 bf 0a 09 9b 7a 92 de e2 3f
       -0.327277339179189 0.5896694559708362
000450 95 9a 29 fe 2a 70 f9 bf b2 3d 99 9e 17 02 a9 bf
       -1.5898847511504404 -0.0488440877057842
000460 70 d7 8b f7 d2 d1 d8 bf 80 e1 33 96 07 d3 b3 bf
       -0.38780664610327786 -0.07743880669648284
000470 95 24 4c 8c 6f a3 f0 bf f4 bc 50 83 72 e9 ed bf
       -1.0399013023727879 -0.9347469868424967
000480 c2 54 9e 6b 05 aa d2 3f 27 44 28 2d 49 86 bf 3f
       0.2916272688829161 0.12314278938744448
000490 10 09 05 fb 0e d9 ed bf ba bd fd 4a 36 61 f0 3f
       -0.9327464010932847 1.0237334184019873
0004a0 0e 3d 05 12 c2 a3 f4 bf ab 46 8d b9 91 4a 00 c0
       -1.2899800018238383 -2.0364107605208424
0004b0 e8 15 26 27 28 62 00 c0 98 f1 51 dd c2 90 e6 bf
       -2.047928148126392 -0.7051710436494885
0004c0 4b ed 86 f8 44 a7 d7 3f 08 8d 1f 13 6c 5a e5 bf
       0.3695843150159887 -0.6672878621579068
0004d0 56 20 52 70 3e 7b ea 3f 88 ab b6 42 53 7a f9 bf
       0.8275444215551129 -1.5923645597456204
0004e0 db 37 0c 85 19 55 02 40 03 9a ed de f1 10 0c c0
       2.2915525812486357 -3.5082738319645173
0004f0 c3 36 5c 68 4a bc c9 3f 72 ab 65 6e e2 e3 f4 3f
       0.20105867477143677 1.3056358635319296
000500 24 fb e2 1b 58 c4 dd bf b2 b3 0b e6 2d cb fc bf
       -0.4651088974314226 -1.7996043192062925
000510 c0 b1 9a 03 ac b0 e6 3f 30 c5 4c 64 2a 78 f1 bf
       0.7090663977046958 -1.0918373029674733
000520 a4 0a ce e6 70 d9 f2 bf 8a be 86 b8 09 e0 f4 bf
       -1.1780861869635055 -1.30469677048305
000530 db c4 f6 db ef fa e2 bf 9f 0a 04 19 a6 1d ba 3f
       -0.5931319519205788 0.10201490507828702
000540 5e 21 48 2f eb e7 00 40 3a 45 9e 1f d3 c1 e4 bf
       2.113241547955268 -0.6486602418464493
000550 7e 0a e0 55 c9 35 b4 3f d4 69 bc fe 94 09 c7 bf
       0.07894571634828115 -0.17997991979866745
000560 81 43 6e 8a 47 ea e8 3f fc 35 37 c7 53 c4 ef bf
       0.7785985664105369 -0.9927157298022276
000570 80 47 ba 27 c3 a1 ef bf 7f 40 e9 80 3a 8f dd 3f
       -0.9884963775568707 0.46186697567919305
000580 da f1 9a 23 21 ef cf bf 26 a4 2f 8f fe 63 f7 3f
       -0.24948515165841806 1.4619126885611506
000590 9a e2 b3 90 f4 78 ae 3f 88 fa 84 c5 c6 aa fd bf
       0.05951656595602124 -1.854193469581931
0005a0 a9 8f 2e 60 92 86 ff bf de f3 7d 56 f3 6d d5 bf
       -1.9703544385056182 -0.334835848297926
0005b0 5f 86 2e 42 06 1e aa bf 92 e9 93 11 10 3e e0 bf
       -0.051010318354440136 -0.507576021510703
0005c0 c5 36 56 b1 a3 8a c7 bf 99 38 83 80 45 e9 ec bf
       -0.18391843947431688 -0.9034755239497542
0005d0 39 1d f2 bc ed 4d d9 3f 15 f5 70 3c c1 f5 f6 bf
       0.39538138820394725 -1.4349987374292301
0005e0 3c 16 05 72 6b e9 d0 3f 7d b6 2e c4 88 9f fc 3f
       0.26424680838349324 1.788948789918691
0005f0 00 90 82 69 e6 d9 f5 bf 31 01 7d 56 da 0f b8 3f
       -1.3656982537731892 0.09399189578562496
000600 2e 88 e0 f3 49 56 f0 3f 32 a1 61 92 41 38 f2 bf
       1.0210666204880101 -1.1387344091436487
000610 a7 2e 72 00 2f 82 f9 3f d4 e7 40 1d 55 25 a4 bf
       1.5942831056044413 -0.03934732420061918
000620 d2 46 87 fe 40 dd c1 3f ec 48 83 d7 9d 4b f7 3f
       0.13956463268419 1.455961076590536
000630 c1 05 23 18 7f d3 00 c0 60 1f cb 5f 0f 64 d1 bf
       -2.1032697568595897 -0.2717321811182867
000640 36 93 25 a6 f7 c6 d3 bf 22 b8 f8 5e cc 20 02 40
       -0.3090190050627827 2.2660148067143533
000650 e9 10 ef 79 90 9f 03 c0 cc b5 00 6d 78 88 e9 3f
       -2.452912285431115 0.7979089859924726
000660 44 8b 4b db c4 7d cc bf ee 7f 7f 2d 2b e6 03 c0
       -0.22258816440361262 -2.487387042478068
000670 df e8 ce fa ff 9f f9 3f ac 9b b0 9e 03 88 cc bf
       1.60156248065919 -0.2229008221486003
000680 62 23 b6 c7 96 35 fd bf 73 c5 ea e7 5d 1d a1 3f
       -1.8255832482556902 0.03342717605608927
000690 50 5b 59 ae ca 2f e1 bf 30 d2 d9 47 c8 33 d9 3f
       -0.5370839505438685 0.39378554360090146
0006a0 89 f4 c7 dc 01 a5 be bf eb b7 88 e1 1c 6c ff 3f
       -0.11970531120455709 1.9638947305606915
0006b0 97 db e9 c6 58 25 cd bf 2f f8 71 48 e6 0d f8 3f
       -0.22770223343442517 1.503393443097149
0006c0 1d a5 bf 10 95 16 ff bf f6 37 43 c6 42 3a f3 bf
       -1.9430132536165907 -1.2017238373405212
0006d0 bc 09 db f3 d3 80 fd bf 2e b5 d9 45 da 18 fa 3f
       -1.843952133713727 1.6310675362140716
0006e0 64 c0 0a 74 38 d9 f8 bf ee 36 1c fc d6 c5 d3 bf
       -1.5530323536768487 -0.30895018215311054
0006f0 18 68 56 0d 59 9e d9 3f 12 94 c5 8d 05 40 f2 bf
       0.40028978636257895 -1.1406302965126582
000700 db 1b d0 1e f4 bf ec bf 60 06 ee 62 d7 a0 e6 3f
       -0.8984318353476469 0.7071339542600974
000710 32 e7 df e5 4d 0f d3 3f 24 39 c5 92 44 c7 de bf
       0.29780909966176516 -0.48091234524771864
000720 fc e2 af 3b 11 ee ef 3f 17 c1 b9 cf 1d 45 02 c0
       0.9978109517824971 -2.2837482670366955
000730 97 ab 0d c1 93 b0 05 c0 da 06 3c 01 c3 0d 06 c0
       -2.711219318608936 -2.756719598430988
000740 ca 19 24 97 b9 7d e0 3f 51 97 9d d1 7c da d4 3f
       0.5153472854588526 0.3258354231860397
000750 58 b3 ef 7d 8f 84 ce 3f 0c b5 dd fd a8 46 e9 bf
       0.23842042588457946 -0.7898755033799332
000760 4b 0c f3 98 3d 43 00 c0 f4 e6 28 b1 04 c9 c9 bf
       -2.0328323315784806 -0.20144709253673165
000770 40 22 5e d3 c3 00 00 40 97 0b 29 9b cd 51 b9 3f
       2.0003735077955582 0.09890446699232168
000780 d2 43 b2 cd 9a 1f da bf b7 fc fe b5 4a 91 00 c0
       -0.40817899787458345 -2.0709432810250195
000790 37 7a 85 7d eb 09 e3 bf 76 c1 7d 88 a0 4a ee 3f
       -0.5949609233464973 0.946609751305046
0007a0 0f 21 95 ab 22 b8 ac 3f 56 76 7e db 6b 78 ea 3f
       0.05609234184754729 0.8271998679153494
0007b0 02 dd db 97 e5 b7 83 3f e2 41 e5 1d 9b 5f 6b bf
       0.009628099152435347 -0.0033414868950460844
0007c0 24 9f 8d 8d d3 0d ed 3f 43 b2 81 6b 5f 0e fa 3f
       0.90793779036628 1.6285089683034506
0007d0 78 d0 78 58 d8 36 e6 3f 9f 23 e2 17 c7 a6 df bf
       0.694194958492985 -0.49455430347784984
0007e0 0b 27 b8 c1 3a a8 e7 3f a6 4d 70 ba 0b f0 f4 3f
       0.7392858298855755 1.3086049349557043
0007f0 fe 25 34 f5 56 88 ed 3f 31 4d da b3 5a 78 f8 bf
       0.9228930272230966 -1.5293833756921453

bias f8 [1, 16]
000000 e7 18 a9 28 61 c9 ee bf aa 1e 77 0c 7d 30 f1 bf
       -0.9620824617529963 -1.0743380057264553
000010 4c 78 22 fb 0d e9 01 c0 1d f3 ce 42 1f d4 e9 bf
       -2.238796197881163 -0.8071438126422411
000020 e8 a6 84 88 d0 e6 d6 3f 0e 4a 30 7d 5b 94 cf bf
       0.35783780414440836 -0.24671500790334772
000030 98 21 c5 20 e6 a4 f2 3f fb 92 f7 29 da a4 ff 3f
       1.1652585296706999 1.9777471198405567
000040 72 47 3c 8b 25 f4 fd 3f 56 0b a6 42 8d 65 dd bf
       1.8721061171422346 -0.4593232298722588
000050 6a ca 26 93 48 c2 d3 bf ad 27 25 31 08 a0 ef 3f
       -0.30873312349573345 0.988285156237216
000060 b4 a1 12 15 a5 9a c1 bf 13 67 d8 62 fe 90 c0 3f
       -0.1375318863768037 0.12942485643798615
000070 20 65 92 44 bf 84 d3 bf 70 75 a8 d5 4e 31 d0 bf
       -0.30497724243612545 -0.25300951828997764
