layers/layer2.npz (npz, 17404 bytes, 2 tensors)

weights f8 [32, 64]
000000 59 e1 e7 fa b6 1a da 3f fd 44 dc b3 13 73 f7 3f
       0.4078805399181156 1.465594961719318
000010 26 84 b8 f0 0b 32 eb bf 81 fa 0d 2b 38 b1 ec 3f
       -0.8498592092111081 0.896633228388808
000020 7a f0 c9 c0 36 40 f9 bf 35 fe c2 d8 b1 07 f1 3f
       -1.5781772166074277 1.06437859222923
000030 88 fc b5 db 24 97 de 3f 80 ab 7f 09 2e 0c eb 3f
       0.47797509628430435 0.8452367959520046
000040 11 af 95 39 80 d6 ea 3f f3 53 6d 20 06 32 f5 bf
       0.8386841892911169 -1.3247128740961187
000050 2f 5f fc 62 b8 65 bf 3f 20 56 51 64 1a ca 79 bf
       0.12264587799688507 -0.006296256154276786
000060 d1 9b 86 7e 74 fd 66 bf d6 0c 85 27 20 47 f3 3f
       -0.002806403663459169 1.204864649175581
000070 18 87 75 f2 d3 96 e0 bf 1e 1b f2 bc bb 3a d7 bf
       -0.5184116111306336 -0.36295979930621225
000080 46 78 30 0d de e0 ed 3f 84 86 a2 24 e9 99 ec 3f
       0.9336996324161724 0.893787929108115
000090 5d d2 e7 d5 f6 33 fb bf de 87 80 79 10 6c a0 bf
       -1.7001865726171197 -0.032074465591236154
0000a0 6b ba 4f 80 b4 b8 cd bf 16 71 f5 c3 4c fc a3 3f
       -0.23219925179678866 0.0390342702109782
0000b0 20 91 e8 76 e1 90 f9 bf 65 44 8c e6 03 0b fb bf
       -1.5978712696897404 -1.6901892667558738
0000c0 34 bd 65 ce b5 3a ca 3f d9 9d 0f 7a a0 32 fa bf
       0.20491669252394618 -1.6373600738532927
0000d0 86 ae ef dc dd 80 01 c0 9b 2d 79 0d fb bb f6 bf
       -2.1879231701512394 -1.420893719320566
0000e0 c6 17 6d 5f ba 66 e9 bf fb 27 58 a2 47 22 08 40
       -0.79379004133147 3.0167381938126687
0000f0 c5 67 cf 7e 75 21 ec 3f 10 72 47 48 f3 6c f3 bf
       0.8790843464623711 -1.214099199619458
000100 ab a7 7c 74 e6 d9 dd bf 6d 26 d9 f5 82 53 e4 3f
       -0.4664245736663541 0.6351942826961029
000110 50 0f bf ee 82 02 f5 bf f6 ac 9f 86 2e 84 dc 3f
       -1.31311314831051 0.4455677332577602
000120 23 0b e4 23 16 2f e5 3f 0b a4 c4 a1 d3 02 f2 bf
       0.6619978619567956 -1.125690109164
000130 68 05 85 ee 1c b4 cc bf cd ae 69 dc 89 e1 ec bf
       -0.2242466129919578 -0.9025315575540503
000140 55 a0 a9 0a e3 51 e3 bf 3c ff 6d ea 73 23 ff 3f
       -0.6037459572080573 1.9461554677399837
000150 31 53 9c 3b e7 fd f3 bf 87 59 a4 c3 8a b8 f6 bf
       -1.2494880989590451 -1.4200542108788754
000160 00 1d e1 bc 8c 56 d6 3f f2 7b 74 36 9e 61 d6 bf
       0.3490325779461756 -0.349708131006934
000170 d4 aa e3 b5 81 33 f5 3f 36 78 7c c8 cd 94 ee bf
       1.3250748734523556 -0.9556645313020968
000180 a9 6f 62 49 9e 05 d2 3f fc 3a e6 a0 8a f9 f2 bf
       0.2815929142614047 -1.1859232220774052
000190 18 97 cd 87 c6 89 f2 bf e0 2f 0b b2 cd 37 00 40
       -1.15863659904557 2.0272478017486577
0001a0 ef fa 9a 7f e6 84 cc bf 82 5f 50 25 3a 16 e8 3f
       -0.22280579786998753 0.7527132729328374
0001b0 f3 0b 41 56 c0 c5 f4 3f f5 86 20 c9 41 56 e3 3f
       1.2982791299152694 0.6042794159186246
0001c0 1f 73 24 55 87 79 d3 3f ef dd f9 3c 83 68 b2 bf
       0.30429251970945076 -0.07190723646805684
0001d0 1d 2a 2a db 5d f1 e1 3f 6b 51 56 6e 83 4e d2 bf
       0.5607136993942877 -0.2860420777808687
0001e0 1b 76 65 57 95 2a 80 3f a6 b2 c2 64 32 ac f4 3f
       0.007893721322655136 1.2920402465780767
0001f0 a9 03 27 74 38 73 f1 bf 35 5c 1d 32 1c 06 f3 3f
       -1.0906300103381261 1.1889917333226212
000200 00 1b 2a 15 b1 e8 f7 3f 3c c0 b6 eb 5e 9d e9 3f
       1.4943095041978154 0.8004603008066691
000210 85 43 3b 36 09 79 e9 3f 19 58 f2 20 f1 92 e2 3f
       0.7960249003609624 0.5804372447480574
000220 cf 57 e0 a7 4f 40 f5 3f 7c 06 a0 c6 43 e9 f6 3f
       1.3282009656590963 1.4319494017403533
000230 1b e1 0d fc 87 c0 eb 3f b9 c8 5d ab 1a 73 e6 bf
       0.8672523425039204 -0.7015508028983027
000240 80 55 06 03 aa 41 e3 bf fd 50 80 bf 9a 55 dd 3f
       -0.6017656382634158 0.4583498830918556
000250 22 be 54 13 c6 fd e8 3f 78 48 b0 6d be ee f4 bf
       0.7809782388266664 -1.3082870754920162
000260 a0 13 f3 7b a1 fa f6 bf e5 ba a4 3f f8 a8 ec 3f
       -1.436189159562879 0.8956261866604477
000270 55 88 a4 61 cc 17 c4 3f fd 65 57 ca 56 5a f0 bf
       0.1569762684603712 -1.0220554260216652
000280 f9 9a 8d e0 ee 73 e1 bf 1b d0 8a cf 9c d1 f7 3f
       -0.5454019914439804 1.4886749369734449
000290 80 10 d0 6a 67 36 f0 3f df 83 35 75 4d 2f ec bf
       1.0132822201130978 -0.8807742394675379
0002a0 78 6d 73 27 cf af e4 bf e9 c9 6a 31 95 7e c8 3f
       -0.6464610834622553 0.19136300003954368
0002b0 03 14 c0 1d b4 62 f0 3f e2 36 4d ff cd 52 e3 3f
       1.024097553455477 0.6038579927787533
0002c0 ff b7 46 a3 ed b5 a9 bf d2 6a 09 4f c8 66 fb bf
       -0.05021612756841875 -1.712593373048254
0002d0 01 a1 54 19 66 2d ce bf 18 63 78 d2 29 ff 02 c0
       -0.23576046215863047 -2.374591488169596
0002e0 c5 b7 25 1f de f4 fd 3f 5b af a3 89 d5 b9 8f bf
       1.8722821442311084 -0.015491169226571058
0002f0 48 ef 44 b3 6f ed 00 40 f1 b5 01 81 74 81 e3 bf
       2.1159357076084326 -0.6095526237165229
000300 fb 31 3b 67 fc 71 d5 3f 64 c3 5d be 27 45 f7 3f
       0.3350821502797598 1.4543836055929313
000310 07 9a cd 83 86 7c f5 3f da 40 5e 0a 1d bd e5 bf
       1.3429017208633256 -0.6793351366523226
000320 ef 8b 21 bc f0 de e2 bf 62 27 43 ae 91 6d fa bf
       -0.5897144007143406 -1.6517502600786078
000330 47 5e 24 a4 ba 1c 01 c0 3f e5 9d 39 c8 d4 de bf
       -2.139027864799377 -0.4817371905006275
000340 75 e8 6f ae 17 7e f3 3f 32 93 01 e6 87 38 fd 3f
       1.2182843030882655 1.8263014778724025
000350 c8 4d cc 47 47 ac c8 3f 03 a1 53 dd a4 df ea 3f
       0.192757520730636 0.839800293234504
000360 da 8a a3 71 a0 7e d1 bf 62 f4 9c d7 87 5f e9 bf
       -0.2733536824945709 -0.7929114543145597
000370 fe 6c 0c 1f 04 a3 d8 3f f9 74 6a 83 bc a7 d3 3f
       0.38494971305927084 0.3071128161771664
000380 fe 6e fe 8c f5 f6 d8 bf 16 c8 d9 c7 7b 0e ee bf
       -0.39007319230016424 -0.9392680075964133
000390 a9 4a 19 9a a6 79 e2 3f da 07 32 56 36 14 d2 bf
       0.5773499498121356 -0.2824836580040234
0003a0 ad 55 28 db 5c 84 dc bf 48 09 6e 50 94 33 d8 bf
       -0.44557877924065786 -0.37814815382457256
0003b0 14 79 d9 59 a2 ec e3 bf 49 ba 88 ff 35 bb cd 3f
       -0.6226360087273712 0.23227572419405565
0003c0 35 e5 96 cc 01 44 f7 bf 21 4b a3 97 12 1b b6 bf
       -1.4541032783293535 -0.0863505954942352
0003d0 9c a1 76 67 fa 7a fb bf 65 f2 c8 ad cb 6a 01 c0
       -1.7175239602603147 -2.1771462990712274
0003e0 c2 f5 a8 d2 79 da ec bf 3e a3 73 2b d9 5c f3 bf
       -0.9016694178059697 -1.2101680466968925
0003f0 f4 91 c1 91 67 eb db 3f ac 03 99 86 f3 a9 dd 3f
       0.4362429545783748 0.4634980024748596
000400 e1 dc 6b c7 d4 92 ea 3f 4e 31 77 d2 48 d0 f0 3f
       0.830423726553729 1.0508506985962245
000410 14 0a 4e b3 e9 d6 b3 3f f8 b1 8c 7e 73 40 e6 bf
       0.07749806048926927 -0.6953675719901744
000420 e5 48 99 6b 25 99 e7 bf da 85 63 f7 fe e6 f3 3f
       -0.7374446012056778 1.243895498621319
000430 8e c0 8a 17 1e ad f5 3f ac bb 5c cc 6a b4 f1 bf
       1.3547650260552788 -1.106547163286204
000440 d0 c0 7f 72 85 bc d4 3f fe b3 e4 fe 94 7d cc bf
       0.32400642568155735 -0.222582458934454
000450 18 80 a1 2b 66 8c 95 3f 9f 0f 7d 86 66 73 f3 bf
       0.021043392575279624 -1.2156739476640508
000460 b5 0d e6 3d 39 8f e3 bf 76 5d 13 10 41 d8 d8 bf
       -0.6112333497007315 -0.38819910592925255
000470 eb 5c 8b 32 71 3d 8f 3f d4 47 25 aa 0c ed f2 3f
       0.015253910403244272 1.1828734060586514
000480 16 00 a9 64 7e 2e d0 bf 98 70 cf cf e3 96 e1 3f
       -0.2528377516755439 0.5496691759867813
000490 67 39 42 58 3c 29 93 3f 36 1c 28 bd 51 cf b2 3f
       0.018711989294894062 0.07347594135363597
0004a0 00 4e 63 02 fc f5 80 3f dd ba 5d f4 2b c9 cf bf
       0.008281678030846784 -0.24832677299442354
0004b0 83 2c e5 8a 5c 41 f2 3f c5 88 64 40 d6 5e e5 3f
       1.1409573960870893 0.667826772467628
0004c0 0c 4f 7e e4 5c e1 f7 bf 5f ee 5b 00 06 f5 f7 bf
       -1.492520229866332 -1.4973201765086726
0004d0 d5 de c5 0a 59 9f ad 3f 5f 66 55 67 5b e4 f3 bf
       0.05785635239129553 -1.2432512318104256
0004e0 de d5 7b cf 71 3f fc bf 07 5e 9d 83 f7 75 be 3f
       -1.7654893975098882 0.11898753131151106
0004f0 af 47 b7 c3 6c ba fc bf c2 5b 67 a0 ae 10 c2 bf
       -1.7955138821748553 -0.1411340983601957
000500 70 e9 2c 4d 9b 5e e9 3f 78 2b b3 40 99 22 c8 3f
       0.7927986628849748 0.18855586680578162
000510 70 e4 e0 41 82 cc e4 3f d4 f3 19 76 96 5e e7 bf
       0.6499644552888082 -0.730296354929687
000520 cd 8f 7d c8 e6 42 e8 bf 32 b2 0e e7 a8 b8 f3 3f
       -0.7581666866139983 1.2325829530410712
000530 ea ff c5 56 30 cc f3 bf e4 40 bd 96 49 e0 fa 3f
       -1.2373507871234275 1.679757679772643
000540 0e 35 41 ef 84 f5 f4 3f 1d 1b c4 7f a8 5c f8 3f
       1.3099412294280373 1.5226216307507408
000550 2f bb 8b db a2 bf f5 3f e7 57 07 72 17 90 e5 bf
       1.3592861724861895 -0.6738393046496157
000560 43 ae 9a d6 c9 48 ac 3f d5 61 83 51 2e 81 e1 3f
       0.05524283165626944 0.5470191566519654
000570 8d 80 07 87 f3 8b 92 3f 7c ba 3e d6 78 49 fe 3f
       0.018111996761831995 1.8929375046679118
000580 53 b2 f5 0f 9c 74 d1 3f d9 60 82 06 d5 97 ac bf
       0.2727422862870174 -0.05584588722666845
000590 6f 8a 11 79 c3 cb f0 3f 80 1b 25 6b 73 d0 e2 bf
       1.049746964382077 -0.5879456608462164
0005a0 36 74 e8 a2 ff 53 e6 3f 6a b8 64 9a 07 c2 d9 bf
       0.697753732852681 -0.40246763303264876
0005b0 cf 81 99 88 23 1a b5 3f 0a 1a 46 4e 41 3e ef bf
       0.08243009648277354 -0.976349499586662
0005c0 42 2f 37 c0 3a 71 f6 3f 4d 91 8c ba e0 5c f3 3f
       1.4026439197941305 1.210175255496398
0005d0 01 c4 5d 0f 2e 84 c0 3f 3f fa 35 ba ef 15 af bf
       0.12903381109529735 -0.060714236718002905
0005e0 1f aa 4e d8 be 4f e4 bf d2 b6 ea e3 e7 33 e8 bf
       -0.6347345566512707 -0.756336159849264
0005f0 70 d7 75 e0 0b c2 f2 bf aa 8f a1 05 f3 6a e3 3f
       -1.1723746078473276 0.6068053350431815
000600 19 d9 0b 47 94 92 e3 3f d2 5d c8 79 6c 93 82 bf
       0.6116429698584255 -0.009070250956070423
000610 97 dd 67 ef 0c c3 d6 3f 5e 1c d4 ff 85 43 fe 3f
       0.35565493945565535 1.8914852135947267
000620 2d f7 a1 b4 d4 19 f6 3f c5 0a cd c2 16 1f c0 bf
       1.3813063674892405 -0.1259487582375042
000630 ae d5 bf 79 aa 76 ff 3f 9b 43 dc d0 7f b7 db 3f
       1.9664711719354773 0.4330749072697075
000640 50 ab 3d 8f 56 76 c0 3f de a5 e4 6a 15 1f f8 bf
       0.12861139291939105 -1.5075887847436813
000650 f0 9f 46 a5 00 57 b4 3f 58 83 b5 c0 c2 af c2 bf
       0.07945255312972654 -0.14598879251118535
000660 49 41 5f f2 22 0c d7 3f a2 f5 b8 db e4 3f c4 bf
       0.36011575383328825 -0.15819988945615387
000670 2f ee b9 b5 1f 10 cb 3f 58 1a 56 f5 da fc c9 bf
       0.2114295613608745 -0.20302903155625773
000680 7f 26 e9 5e 6b 7a c9 3f c1 19 5f 83 62 bc f2 3f
       0.199048444121491 1.1709923869799328
000690 74 c1 7c 53 0f 69 d6 bf 8a a8 37 84 15 57 ad bf
       -0.3501623454385687 -0.05730502356512186
0006a0 d4 db ba c6 f0 c4 e4 bf ad 55 d8 19 2a 31 c0 bf
       -0.6490405923312843 -0.1265003801533288
0006b0 2d 41 0b e4 98 03 ef bf 09 42 2a e7 cf ec f4 3f
       -0.9691891149505288 1.3078154592404891
0006c0 f2 f7 f7 cc bf b3 e5 3f 10 92 96 14 c2 d8 f6 3f
       0.6781920436185358 1.4279194645142788
0006d0 91 88 c4 a2 2c b4 e3 bf 65 64 02 25 77 84 f0 3f
       -0.6157439402634443 1.032340187614204
0006e0 c6 80 73 f2 21 26 fb 3f d2 20 0e ba 2d 66 e7 bf
       1.6968097182034838 -0.7312229761019131
0006f0 19 b0 57 97 75 7e e9 bf 91 18 12 2b ab ec d5 3f
       -0.7966869312199406 0.3425701065647298
000700 e3 e0 94 59 4d 70 e4 bf 64 a1 f6 99 21 61 f7 3f
       -0.6387087583198333 1.4612136854358022
000710 f7 e9 77 f7 35 0d f9 3f 73 da 71 96 22 67 d4 3f
       1.5657252947554505 0.3187948674380216
000720 40 e6 31 10 9b e2 cf bf 39 8d fd f7 c0 83 e7 bf
       -0.24910295763747747 -0.7348332255900579
000730 eb 4b 8b 38 01 42 f4 3f a3 79 73 a3 80 69 ea 3f
       1.2661144455676048 0.8253787224201016
000740 84 46 2c 2c bb 48 f8 bf fc aa f6 4b 14 d1 07 40
       -1.5177566266542337 2.977089494195182
000750 df 9d 54 d0 c2 ef d3 bf 26 6c bc 91 03 e6 bd 3f
       -0.3115088495710249 0.11679098423012188
000760 02 08 87 88 41 bd b8 bf e2 47 00 1f 7b ea d7 bf
       -0.09663781722250067 -0.3736865809197508
000770 b1 cd 6f 20 d5 c5 f8 3f bc 0c 58 d8 9f 1b ce bf
       1.5482989565906389 -0.23521802962941318
000780 ef 69 73 2a 76 1b ea bf e6 e9 46 9f 3e 72 e2 3f
       -0.8158522442930102 0.5764458762053521
000790 76 51 21 63 1d a9 d5 3f 94 b9 f6 25 7f 88 9b 3f
       0.33844694786718976 0.026887880985378823
0007a0 ad 06 30 60 8f 57 d6 bf 56 27 04 7f 23 4f d9 bf
       -0.34909424203224654 -0.39545524028709644
0007b0 a2 4c 13 a8 b3 21 c5 3f 31 ee e0 8f 11 83 d5 bf
       0.16509099680715617 -0.33612479258201505
0007c0 64 95 94 17 1f a4 93 bf d6 fd 42 d4 6b b8 f3 bf
       -0.0191807611601197 -1.232524708888254
0007d0 ee e9 6d e3 ee cd e3 3f d8 f6 f4 d1 b2 1d f8 3f
       0.6188883249263293 1.5072506143036914
0007e0 30 7e a0 05 3b 38 c5 bf 25 14 6d e2 e0 9c ac 3f
       -0.16577852034332485 0.05588438762655582
0007f0 2d 84 8c e3 78 68 f1 bf d7 c8 50 0f af 02 f3 3f
       -1.088005913603648 1.1881552313102952

bias f8 [1, 64]
000000 c7 c4 12 28 35 fe d5 3f b3 be 86 08 65 38 dc bf
       0.34364060319337536 -0.440942056967269
000010 f9 5d c9 ff 49 af de 3f 84 a3 65 43 74 d5 e8 bf
       0.4794487951198501 -0.7760564152095957
000020 45 58 11 cc b6 e2 b3 3f 9e f7 bf ee fe 25 e8 bf
       0.07767813188670043 -0.7546381629069747
000030 3e 6d c0 56 97 6a fb bf 14 c8 a7 5b 11 2f d2 3f
       -1.7135232342469204 0.28412279082033476
000040 f4 1a 73 8b 13 5d ec bf 72 67 16 13 4b 6f d4 bf
       -0.8863618587136828 -0.3192928015138171
000050 c7 90 7f ec 0e 69 da bf df 13 8c e8 a3 67 d8 3f
       -0.41266224952256575 0.3813256998985803
000060 f5 9b 11 db 14 fa f1 bf 1c 09 f7 ee c0 60 ea 3f
       -1.1235550458311512 0.824310747841341
000070 71 53 04 67 3f d0 e5 3f 1e f4 72 78 5b da f8 3f
       0.6816708576248925 1.5533098893204236
000080 36 67 04 74 4b 98 f2 3f 6e c7 f6 17 f2 df c3 bf
       1.1621813327714796 -0.15527177972904432
000090 e8 b9 16 21 81 36 a8 3f 01 d5 6b a8 aa e5 e6 3f
       0.04729083565631581 0.715535477588361
0000a0 27 a9 3b 88 ab ae f9 3f e9 52 0c 56 26 52 ef bf
       1.6051440545657643 -0.9787780457141625
0000b0 ae 01 b7 29 89 53 f6 bf 18 7b 94 b8 63 2d c4 bf
       -1.3953944806563459 -0.15763517868705246
0000c0 bf d7 06 c7 24 7d e4 bf d1 12 23 1c f3 ae fd bf
       -0.6402763259163676 -1.8552123164274017
0000d0 d1 55 01 d8 c2 de e4 3f fb 0b 56 34 bc 2e b4 bf
       0.6521925181247586 -0.07883812215554535
0000e0 e2 f5 4b df 73 db e0 bf 32 c5 b8 ba a1 44 f2 bf
       -0.5267886506332469 -1.1417557996576986
0000f0 86 40 93 57 6b 05 f0 bf 69 25 64 81 28 c7 e0 bf
       -1.0013230725199107 -0.5243113066837114
000100 c2 c2 36 22 9d 7c e0 bf cd 96 dc a1 80 8c f3 3f
       -0.51521164591221 1.2218023607942314
000110 c9 2b 93 c3 1a b7 c6 bf 70 ee ef b6 e0 77 f9 3f
       -0.1774629073100569 1.5917670389161707
000120 a0 26 a2 18 b4 18 ed bf d3 41 10 70 41 2b c6 3f
       -0.9092655640717631 0.17319505664683152
000130 d2 7c 57 ab ea 01 a8 3f ab 07 05 05 be 62 e2 3f
       0.04688962308477475 0.5745534990348821
000140 4b b9 a8 92 eb 82 f6 3f fe 05 be dc 5b 55 ec bf
       1.4069629410619935 -0.8854197799084316
000150 15 34 24 e7 8d 4c f1 3f 3f ef 19 e0 d8 2e d4 bf
       1.0811900166475017 -0.315359324311192
000160 60 70 fc 49 cb d5 b7 3f 70 ff 74 af b6 13 e0 3f
       0.09310598903943079 0.5024064471144651
000170 fd bd c1 86 42 4a ac 3f 07 bd be 94 21 ff e7 bf
       0.05525405783634694 -0.7498939423730072
000180 cd 7f 56 c0 dd b6 d1 3f d4 10 7c c4 26 d1 f2 bf
       0.2767862680720981 -1.176062362211316
000190 48 e8 43 c9 db 77 eb bf f3 10 0e 37 63 43 e0 3f
       -0.8583811694109125 0.5082260203639904
0001a0 18 75 2f f6 8a 20 07 40 b0 00 f1 fa 22 45 c5 3f
       2.890890048335347 0.16617238286017288
0001b0 28 93 fa ec 99 56 f1 3f 28 bf 97 7e 8c f2 e7 3f
       1.0836428887352643 0.7483580086245398
0001c0 bd cb 54 f0 a6 b9 e6 bf 60 82 ae ff a1 27 f4 3f
       -0.7101626104325686 1.2596759784284117
0001d0 85 b6 1f 16 1a 89 f0 bf f8 81 01 76 a1 d8 e7 3f
       -1.0334721435750975 0.7451941780855682
0001e0 fa 3e ea cc ab d3 ea bf c9 75 16 2b 41 41 ca bf
       -0.8383387567755272 -0.20511641124623584
0001f0 41 dc 7a 4e 94 d8 8f bf de 91 d6 00 52 70 ff bf
       -0.015549811024682227 -1.9649219544163468
