layers/layer5.npz (npz, 1556 bytes, 2 tensors)

weights f8 [16, 8]
-1.9797924358435244 -1.0304748474285153 0.8588889455598948 0.6963868290236573 -0.3614773597952214 -3.033792097237645 0.5370767659163456 -0.957605373614482
-1.928910927473452 -0.014012441703144335 -0.4326609261948159 1.6507403167036354 -0.27320769542787243 -0.09624882461261228 0.7449390861874368 -0.08671526848009412
2.0947822355039083 -0.010904232862068977 0.22289323687742438 0.8511590452242108 -0.19965662053568028 -0.6019012868898215 -0.9553525282450568 0.4693202037646736
0.9347795657455658 -0.29236987481271964 1.0484071467943927 1.7534162951239243 0.2426895294772138 0.5990169888552213 -3.0864879954584388 -1.3437500742390214
2.7218742932499547 -0.1924521262360093 0.7351968216372377 -0.9428185231429983 0.14418401061481492 0.9555372729853541 -1.5553074353868068 1.029484868587988
2.8689442618520107 0.8788426385738655 1.845271487033774 -3.2812323188756194 -1.0194304493800266 0.2613400765654825 0.3852914801969213 2.3745928264448595
0.7936634952847049 1.478058128868944 -1.1729028774928667 -3.2663851048568056 -2.687123291157501 2.2171923799225444 2.3146314574005773 3.5407835874839853
0.9839886468000086 2.1951367363208543 -0.39156954624780677 -1.6542148895186166 -1.2407423083498657 3.179922915344179 -0.0196117622227935 3.1501918407814715
-0.8030568894805864 -0.8953060852883004 -0.28190846254980506 -0.8970486774281854 1.8026106297893771 0.5141540556058134 0.36149800268451954 -0.3733146985326536
1.4359386485985566 -0.2940262264910872 -0.4438599667849429 -1.0898929107290403 2.392576074937045 1.1406456409655301 0.43812608748580656 -2.657296995165937
-0.4477818819122374 1.4277983052911822 0.9711202019554909 -2.431923346385992 -2.7767606118461297 3.574275579813275 1.4781220132053607 3.5277934772841593
0.2692067251962593 -0.563156382396025 0.22364679833011095 -0.06369518308990095 0.43326553848485483 -0.6973024776574597 2.768927255736183 -1.3240925636378946
1.0739825661873592 0.30571527762512557 -0.08092590882067183 -2.6666272257516694 -2.1089406870594742 1.8553915013217452 -0.26197363157585163 2.553336909516544
-3.32020572845064 -0.0292814322847044 1.3431583930867788 2.8199399650960504 -2.3488711528657142 -3.135244137185894 0.21773889921791054 0.5265577454032061
0.5784573547425428 -2.0406717211082355 0.5966882631241426 1.2403378647390952 2.5139970410545907 -1.7699346248579286 0.9219207433493419 -1.3976873698587788
-0.522768156982585 0.5937568097169731 -1.0778506897768052 -0.6565001969195767 0.08387264634537513 0.3253106389052098 0.41214188167856597 -0.8165097250497242
00000000: cf0e 4dd5 3aad ffbf a2e5 9031 d37c f0bf
00000010: e96b 82ab 047c eb3f 31b2 0008 cd48 e63f
00000020: 5727 a4ef 7122 d7bf d3fd 83ca 3445 08c0
00000030: 3aab 219d bb2f e13f ebbc 4406 b4a4 eebf
00000040: fc53 66b4 d1dc febf d01f d116 8eb2 8cbf
00000050: 2ae2 1074 b7b0 dbbf 8be4 a6ad 6e69 fa3f
00000060: 1935 3821 3c7c d1bf 0e57 fd51 c3a3 b8bf
00000070: 44fd 957e 8ad6 e73f c694 2fca f832 b6bf
00000080: 34d9 4d30 1dc2 0040 7b93 3e5c f554 86bf
00000090: e1ad 71fd c387 cc3f 9ed7 dde4 b13c eb3f
000000a0: 72b8 d01f 598e c9bf 4c96 d37c c642 e3bf
000000b0: 76d4 1e77 3f92 eebf 755d a19b 5709 de3f
000000c0: c814 fbd5 b6e9 ed3f ebff a922 30b6 d2bf
000000d0: 50fe 8592 46c6 f03f b54a bd3e fe0d fc3f
000000e0: 69d7 1754 7310 cf3f d635 1cad 252b e33f
000000f0: bbec 3f9e 20b1 08c0 adaa ed13 0080 f5bf
00000100: 42a7 8a07 66c6 0540 795a 1d72 45a2 c8bf
00000110: 39c3 217c bb86 e73f 51ca 5ec0 912b eebf
00000120: 012f 1925 9f74 c23f 8998 32e7 c293 ee3f
00000130: 3964 a30c 8ae2 f8bf 0bff 2420 c578 f03f
00000140: 279c 950c 99f3 0640 c829 e098 7a1f ec3f
00000150: 52d2 1065 3b86 fd3f 3631 e1ba f63f 0ac0
00000160: 0924 8a4d 964f f0bf 90e7 7eba cbb9 d03f
00000170: a6e2 b798 9da8 d83f cd2c 1786 2aff 0240
00000180: 05dc 88fc b065 e93f dd43 d147 20a6 f73f
00000190: 6175 c3ce 35c4 f2bf 1803 8c83 8e21 0ac0
000001a0: 17bb fe7e 3a7f 05c0 71a9 c55b cfbc 0140
000001b0: 5aa0 5e7f 5d84 0240 7ea8 7358 8653 0c40
000001c0: cb85 34c2 d57c ef3f 4ff8 65d9 a38f 0140
000001d0: e39b cfb6 790f d9bf 909e 3008 aa77 fabf
000001e0: 0005 529b 14da f3bf 41a2 e96c 7b70 0940
000001f0: e58e 7415 1b15 94bf 7a42 a2c7 9733 0940
00000200: fdb0 a45c a4b2 e9bf 1e23 87f2 58a6 ecbf
00000210: ce7d c7ca c90a d2bf e82b 8f6d 9fb4 ecbf
00000220: 9ee0 653e 7ed7 fc3f f5d8 bd34 f373 e03f
00000230: 735b c684 c822 d73f 0f16 5455 63e4 d7bf
00000240: 19b1 eccd 9af9 f63f 3583 bc60 53d1 d2bf
00000250: 1614 56a2 3368 dcbf 5b93 7b8c 3370 f1bf
00000260: 8c5f d8ec fe23 0340 be59 c4a4 1540 f23f
00000270: 8fa9 5100 420a dc3f 62f9 4fed 2442 05c0
00000280: 2f7b a356 75a8 dcbf 5a28 2809 43d8 f63f
00000290: ab47 7cac 6a13 ef3f 8eda 383a 9474 03c0
000002a0: c299 8544 ce36 06c0 0084 91cb 1d98 0c40
000002b0: 6e6f a344 63a6 f73f 17d2 5fc9 eb38 0c40
000002c0: 4432 25d8 ae3a d13f 4d96 9d88 6005 e2bf
000002d0: 616a 5752 75a0 cc3f d7aa 48d8 534e b0bf
000002e0: 96ae 9161 9fba db3f 86ac 1e49 4d50 e6bf
000002f0: 961e 4355 c326 0640 9339 1baf 7b2f f5bf
00000300: 58fb e357 082f f13f fd65 d2cf d690 d33f
00000310: 46ab c873 8fb7 b4bf 23d0 a9a7 4055 05c0
00000320: 63fe 804b 1cdf 00c0 7540 b7ff aeaf fd3f
00000330: b416 020d 2dc4 d0bf 9d58 d0e6 3b6d 0440
00000340: b47f 5d05 c88f 0ac0 49df 2ba8 f3fb 9dbf
00000350: 737d baa7 937d f53f d72a 36af 3c8f 0640
00000360: c59b 80f5 7cca 02c0 6283 d1e0 fa14 09c0
00000370: 9f9e 9a45 dede cb3f dfca fea0 8fd9 e03f
00000380: 1dff 97ff b882 e23f 5741 00b2 4b53 00c0
00000390: bace 00fc 1118 e33f dab7 5084 6cd8 f33f
000003a0: d88f 0c7b aa1c 0440 522a 1df8 a651 fcbf
000003b0: d60f 46ee 5f80 ed3f 1d36 796e ed5c f6bf
000003c0: 362c 3449 84ba e0bf cd5f f047 0e00 e33f
000003d0: acff 685d e03e f1bf dec9 72b3 0c02 e5bf
000003e0: 8d15 1581 ad78 b53f 23e1 c8b6 e3d1 d43f
000003f0: 13c4 c757 8860 da3f 688b be00 d920 eabf

bias f8 [1, 8]
0.015721533378602697 1.208009653178054 -0.8108423203342773 0.32070881316744815 -0.4216468830589605 -0.11905552051036537 -1.3503202462110926 -0.5448615223977348
00000000: fbf7 d03e 4e19 903f c66e 1aee 0154 f33f
00000010: 1f8d 0198 6bf2 e9bf 66f6 0542 7e86 d43f
00000020: 66b5 4c35 43fc dabf 1f12 002f 6c7a bebf
00000030: 29a7 0967 e99a f5bf 5f81 716e 816f e1bf
