layers/layer0.npz (npz, 1620 bytes, 2 tensors)

weights f8 [8, 16]
-1.0045291221543793 -1.2526423747389879 -0.2807174508454694 -2.202680414686115 -2.6315150503373737 0.9810945950157745 -3.663939458164322 4.326291928365388
2.0561663995726236 -0.13303507287301555 -2.0458892370650283 0.7828891586390563 1.5760550826703004 -2.3910474795622427 0.20393414202472251 -1.7286238260089295
-0.579354207498948 2.6420890894537443 5.0302533039979265 -3.533422623977458 -0.9035866896286162 1.5190051101227284 -0.9446326245421413 -1.501735417526608
0.5566602483983415 4.535724939172812 -5.1370538039758875 -2.839223585522027 -1.895116066157885 2.466480031138945 -1.3635522966293911 -0.37188681096554477
-2.936548357382496 3.2003694765998607 -0.3105424541816812 -1.0185309422567697 1.022517040569158 -0.6138484876699695 1.3971622019637373 2.7208644672350015
-3.027340866316301 1.1769274465885018 -1.0985311610510748 0.09742622599496362 -0.7241773512652435 1.778893857207004 -0.9323861525573195 1.6807342460773287
3.047619176270409 0.5754921498224406 -0.06426883969645575 2.6018412667119812 -0.13605862635792942 1.3113853382473777 -2.3707834894983026 -4.303719502717219
-1.5563146925427194 1.4471460154536162 -0.537378421856738 -0.08441906521547822 1.7228765904519046 0.8564245487473566 0.5833548608558894 1.6586284168416037
-0.21344462343648843 2.153374925497221 -2.398837018891961 -0.9184301950041497 -1.0175890392357154 3.4785957294565097 -2.052497917597677 0.6519911376322414
-0.9126064323518207 0.2636999910987455 1.7721271039505995 -1.3354809338732008 1.2768748351403845 -3.7084995833480656 -1.7778439480145325 -3.2175999301318314
2.6268255725001084 -1.4166580873418348 -2.2829693663044766 0.2623257848794625 -1.0279871062101174 -0.9032792279101572 1.0054309112726174 0.44787243844981517
2.522316177666617 -0.5954415995997336 3.944181013060531 0.4471205033564974 -3.898008381167569 -1.0235740429288618 -1.3385001943969213 -1.3795023074797867
0.5502126587658537 -1.2576208730551757 1.2238968056175215 -1.8898079107387997 0.20937213083209288 -3.742149871479427 -0.24299641740735053 1.3724138748866763
-1.640513897389531 -2.338211226574044 1.3188724809189534 3.414251743490528 -0.869907385162916 1.6465642181483633 0.659549344737624 1.1293599397027438
-1.1082302825439303 -2.43934672985692 -2.086705953058717 1.1026414010687855 1.238225687447653 -1.6438904541119537 6.747473098373516 -0.23727272590614204
2.841313373744797 -0.8059809400049239 -1.8368014745323422 -1.9140443899033255 -0.6780908055435382 2.427247566711168 0.030561587513016252 -0.3170908543346386
00000000: ba85 f820 8d12 f0bf 5767 11bb d20a f4bf
00000010: ce0e b353 46f7 d1bf c3ee c4e8 169f 01c0
00000020: e80b 41c3 570d 05c0 f300 fc7d 2065 ef3f
00000030: c1b7 9a7d bf4f 0dc0 ca1c a578 1f4e 1140
00000040: 4d63 8a5e 0773 0040 3df4 9a13 4b07 c1bf
00000050: 2576 232d fb5d 00c0 2eed 9790 6d0d e93f
00000060: 5d37 cc88 8537 f93f 7839 3f80 dd20 03c0
00000070: 315a 4493 831a ca3f 48b7 fc74 71a8 fbbf
00000080: 5e41 c0d5 118a e2bf f893 c29a ff22 0540
00000090: 7311 ddb8 fa1e 1440 0070 a714 7344 0cc0
000000a0: 30c9 21a2 2eea ecbf a7f1 664d d84d f83f
000000b0: a294 a432 6e3a eebf d458 98b7 1b07 f8bf
000000c0: e554 3b27 29d0 e13f 6398 1514 9524 1240
000000d0: af79 17d5 578c 14c0 aeca eeda bab6 06c0
000000e0: 4b5b 6439 6552 febf a5d4 efe1 59bb 0340
000000f0: f68a 8636 1cd1 f5bf b649 ba56 fecc d7bf
00000100: 8aa4 b010 0d7e 07c0 81e7 e84f 5b9a 0940
00000110: abb6 2e75 eddf d3bf 6c4f ef19 e74b f0bf
00000120: 4a8e 0dd4 3a5c f03f 02bb 6795 a5a4 e3bf
00000130: fd43 cac0 c65a f63f 7cfb fc96 54c4 0540
00000140: f061 f57c fe37 08c0 66cc cddf b1d4 f23f
00000150: d39e 2569 9593 f1bf 7ecb 6bd6 ecf0 b83f
00000160: 1f05 06fb 752c e7bf 6826 bc67 5976 fc3f
00000170: 3543 0f7c 1bd6 edbf a1b5 c297 49e4 fa3f
00000180: 70f3 a529 8661 0840 9af2 5283 6e6a e23f
00000190: c4ec a534 ec73 b0bf 154a 6f27 92d0 0440
000001a0: 04e3 457b 5e6a c1bf 469f 4331 6ffb f43f
000001b0: f455 8a55 5df7 02c0 b54f cd3e 0237 11c0
000001c0: 9b15 2c3c aae6 f8bf 548f 8e94 8227 f73f
000001d0: cd6c 6e3b 3432 e1bf 1566 42e4 7c9c b5bf
000001e0: 048f 300b e790 fb3f 0991 8b74 d467 eb3f
000001f0: 6ed6 2ad0 d7aa e23f aad0 68f3 bd89 fa3f
00000200: 2958 9546 2752 cbbf c74b 08a2 1c3a 0140
00000210: d299 8476 d130 03c0 8974 66b8 c763 edbf
00000220: 3d91 c471 0b48 f0bf f42a 70ff 29d4 0b40
00000230: 6185 3907 846b 00c0 a831 ad84 1cdd e43f
00000240: f33f a267 1234 edbf e55f 6eed 75e0 d03f
00000250: 142b 3df3 a15a fc3f c5ab 7641 215e f5bf
00000260: a736 a04e 146e f43f 32ad 5dd4 01ab 0dc0
00000270: b4d2 e17e 0c72 fcbf 8d39 3c08 a5bd 09c0
00000280: bd79 3120 bd03 0540 17f4 abab a1aa f6bf
00000290: 6d61 7071 8543 02c0 d11b bd16 f2c9 d03f
000002a0: 371d 9e9b a272 f0bf dbf7 e0d6 a9e7 ecbf
000002b0: 9ada 24b9 3e16 f03f 9cfd fa28 f1a9 dc3f
000002c0: afff a91a b42d 0440 59ae 9e8a db0d e3bf
000002d0: 04cb 64c6 ae8d 0f40 b961 d250 9f9d dc3f
000002e0: 5b30 a504 1f2f 0fc0 969f f62c 8f60 f0bf
000002f0: 9ffd 092e 7f6a f5bf 931d f602 7112 f6bf
00000300: 59d3 e793 579b e13f 879f 8810 371f f4bf
00000310: e2e5 1cd1 1495 f33f 1286 4538 a73c febf
00000320: e20f 4fbb b4cc ca3f c0e0 9545 ecef 0dc0
00000330: 6ba5 e7b0 811a cfbf 4670 5340 68f5 f53f
00000340: 9cbe 1e80 8b3f fabf 5b34 6a16 a8b4 02c0
00000350: b842 d207 1a1a f53f 88d2 d437 6350 0b40
00000360: ee5a 3a03 48d6 ebbf 6160 bbb8 5358 fa3f
00000370: e5e1 373a 071b e53f 1bf9 66ba db11 f23f
00000380: 8868 3fad 4fbb f1bf 5bb8 e237 c883 03c0
00000390: ad0b 06e4 92b1 00c0 98e5 4c4f 6ba4 f13f
000003a0: 027a 0abd c5cf f33f fee0 a913 604d fabf
000003b0: bd9d 8096 69fd 1a40 99f4 ffe2 f35e cebf
000003c0: e15e 8f81 02bb 0640 d3a7 508a 98ca e9bf
000003d0: 9ac6 65f1 8963 fdbf 05a2 9b02 ed9f febf
000003e0: ace3 307d ebb2 e5bf 748f b2c5 006b 0340
000003f0: b36b 876b 894b 9f3f 1b97 4e70 374b d4bf

bias f8 [1, 16]
-0.2491693424085075 -1.5698970295200108 -1.2943467575032286 0.6121166998237637 0.1111843980479175 -0.5382553648045456 -0.10033229405342117 -1.2293603465873812
-1.4152931442880234 -0.07981260364248229 2.3707690862262485 -0.9544115065021089 1.5462947593605234 -0.32569998201939654 1.0981963545173146 0.9367850044827731
00000000: 0fba 67f0 c7e4 cfbf 1104 fe58 4c1e f9bf
00000010: 668f 12f2 a4b5 f4bf 3083 e2c2 7596 e33f
00000020: e2f5 70a9 9476 bc3f 246d 9750 6339 e1bf
00000030: 6a2d b191 60af b9bf f278 39c1 75ab f3bf
00000040: 6885 8f6c 0aa5 f6bf 85fc 734a 996e b4bf
00000050: 24ad 5dc8 55f7 0240 e748 ebff 898a eebf
00000060: ccdf d692 9fbd f83f ae30 c5bc 44d8 d4bf
00000070: 07d0 3357 3692 f13f 0b60 b48b 24fa ed3f
