layers/layer2.npz (npz, 17364 bytes, 2 tensors)

weights f8 [32, 64]
0	0x3fd9a42443a1edc9	0.4006434116815539
1	0x3ff77a721fe6e438	1.4673939939659828
2	0xbfeb2c4d3e359e01	-0.8491579260852974
3	0x3fecab47c41a645a	0.8959082441462087
4	0xbff933c5e13b9607	-1.5751398847727403
5	0x3ff0da24aa34491a	1.0532576225855963
6	0x3fde86c921d458cb	0.4769766645780577
7	0x3feafc2679ae9aa4	0.8432800652124866
8	0x3fead461b1d7f516	0.8384254907138338
9	0xbff4f4f7eb319182	-1.3098067462206875
10	0x3fc1c366c664f62b	0.13877567946649214
11	0x3f8a5a991dc91444	0.012868114682655592
12	0xbf7fedffb0dc758b	-0.007795332710683121
13	0x3ff3590f6207b6aa	1.209243185930442
14	0xbfe07aa49aa5694d	-0.5149710674698241
15	0xbfd7a9b230ebe8db	-0.36973242547504775
16	0x3fedb5fea1739374	0.9284661439274786
17	0x3fec649950127237	0.8872801364810304
18	0xbffb6f13996bc0df	-1.7146183007244458
19	0xbfa77233c9b81e9f	-0.045793169378211866
20	0xbfcd820ff11173cf	-0.2305316855517092
21	0x3fad02cb046ceea8	0.05666193417570514
22	0xbff97ac6034c72a5	-1.5924739960529817
23	0xbffaab6c7c1b571c	-1.6668515060350222
24	0x3fc98ae214cafb1a	0.19955087676313427
25	0xbffa2d2e88ffe35d	-1.6360307075066978
26	0xc0018e901d153fa0	-2.194610812388376
27	0xbff6bbae77d5eada	-1.420820682628508
28	0xbfe9cd7176fa9061	-0.8063285182765975
29	0x40084c4115ec2111	3.0372335159955886
30	0x3fec6a98f4ef3e29	0.8880123885991839
31	0xbff36dcdf4d8d1ad	-1.2143077434858285
32	0xbfdddfd759e6ac71	-0.46678718356515164
33	0x3fe441c4bbbf0238	0.6330283800999217
34	0xbff51e030dd5ab3e	-1.319827131311015
35	0x3fdcf26c15ffd71a	0.4522962775075584
36	0x3fe57ba1892cf7ce	0.6713416747295413
37	0xbff205b9443faee0	-1.1263973871199866
38	0xbfcd27c6342b1ac5	-0.22777631327899975
39	0xbfed15af2829c1d3	-0.9088969978748146
40	0xbfe34694b19fb0ba	-0.6023658246245056
41	0x3fff605602ea113c	1.9610195268479194
42	0xbff426db40fa0daa	-1.2594864404826276
43	0xbff6befcb4821e14	-1.4216277171234468
44	0x3fd5a10fb96adc3c	0.3379554091183683
45	0xbfd6beec59d5a72d	-0.3554030301371423
46	0x3ff53b31608c2805	1.3269513865839155
47	0xbfeeb24b23397eab	-0.9592643440227752
48	0x3fd210cf72cd332c	0.2822760220631604
49	0xbff2fd6c34802463	-1.186870770530981
50	0xbff264b367c37400	-1.1495851567517548
51	0x40003a2dadd93f2a	2.028407438461632
52	0xbfcc66795d305f5e	-0.22187726068727448
53	0x3fe7e79ac2069697	0.747022036510958
54	0x3ff4c1cdc54e1328	1.2973153788781904
55	0x3fe326b6cf5eefe2	0.5984758424960968
56	0x3fd3c9b3d1c3ca9f	0.30918593869061256
57	0xbfb4d5970f1932f7	-0.08138412588705167
58	0x3fe1f287c1d992c9	0.5608557497149259
59	0xbfd289ec3161b6b3	-0.2896681291812044
60	0xbf6b604df8ca9e19	-0.0033418200385602168
61	0x3ff4bf1a7ec8975c	1.296656127212791
62	0xbff13c43a57f0cde	-1.0772129502009231
63	0x3ff309a11fd7ef44	1.189850925816203
64	0x3ff7e6f3ee3491a4	1.493884973992956
65	0x3fe9d174e9eb6a1a	0.806818444132037
66	0x3fe9950cc3e64dd6	0.799444563499885
67	0x3fe27b56b94aade2	0.577556001565821
68	0x3ff54a6d3976037a	1.330670570809359
69	0x3ff6d64c9c5a3ae5	1.4273191554563536
70	0x3febf6c28dfca501	0.8738720677548885
71	0xbfe684af0198beb4	-0.7036967307266964
72	0xbfe33e5ea0c0e061	-0.6013634814944561
73	0x3fde102e300a251b	0.46973757449502934
74	0x3fe95f1d4656b341	0.7928606389810754
75	0xbff4c085f3edf6d5	-1.2970027473924592
76	0xbff702f13998eceb	-1.4382183313271593
77	0x3fece5671e23d03d	0.9030032719297264
78	0x3fc4210fe2d56f89	0.15725897384515644
79	0xbff08bda18f37b47	-1.0341435408260666
80	0xbfe18fc584d6a848	-0.5488002390386635
81	0x3ff7bc376044c807	1.4834512482161715
82	0x3feff787676db937	0.9989659328546513
83	0xbfec94cb6b01270f	-0.8931634035045323
84	0xbfe4a1dcb298b6c2	-0.6447585571492811
85	0x3fca69486492b14d	0.20633797560493364
86	0x3ff0900dcb380cb4	1.0351694048156732
87	0x3fe3bf63edb24aac	0.6171130793103052
88	0xbfabf0c28ca3ba9e	-0.054571227710643586
89	0xbffb640444d578d7	-1.7119181336234328
90	0xbfceaf24735cef2a	-0.23971992142639326
91	0xc00300e4d45f99a6	-2.3754364577936995
92	0x3ffdc5a4f9492d5c	1.8607530343750431
93	0x3f38484ae7078e02	0.00037051991151157437
94	0x400122acb629bda2	2.141930983685328
95	0xbfe3839574e38896	-0.609812477396434
96	0x3fd56c847c4de8bd	0.33474838389487244
97	0x3ff7378cc77c986c	1.451061991925168
98	0x3ff5a9265a3ceb11	1.3537963414116272
99	0xbfe59ac97274f747	-0.675144885586385
100	0xbfe2b196f0646a37	-0.5841784186516809
101	0xbffa6a38bf56ca41	-1.6509330248051273
102	0xc001197d07ff0121	-2.137445509404771
103	0xbfdf722eca51fcad	-0.49134416349256577
104	0x3ff393da730473ec	1.223597001349158
105	0x3ffd70bf5c82e2f8	1.8400262464257917
106	0x3fc817f8eb5e0ef9	0.1882315778021775
107	0x3feb0c2834912dbc	0.8452340151501896
108	0xbfd26b3b72c68098	-0.28779493530783773
109	0xbfe9994b5ee322df	-0.7999626973406427
110	0x3fd85ff0c73da1aa	0.3808557458601408
111	0x3fd343624d42112b	0.30098779244169077
112	0xbfd8d3df2b8e0ba6	-0.3879316258755189
113	0xbfee10518d90da2a	-0.939492012496719
114	0x3fe29b75ec576929	0.5814771286052621
115	0xbfd1fc958391a6a1	-0.2810415062764183
116	0xbfdd0e4ad3a90074	-0.4539973322862416
117	0xbfd8613c043a5a1d	-0.38093471920856975
118	0xbfe3ea5958052d64	-0.6223570555825231
119	0x3fccaf163b8d69ba	0.2240932265074898
120	0xbff74ec3802eafa8	-1.4567294127582304
121	0xbfb929b52386fb43	-0.09829265706410432
122	0xbffb7365ba5aadb0	-1.715673187204498
123	0xc00175a7ad6c667d	-2.182448725576988
124	0xbfecda51eb5f2ee9	-0.9016503903489738
125	0xbff32bda019d7965	-1.198205953892818
126	0x3fdcb97c010f50dc	0.44882106879709993
127	0x3fdd87578682eab8	0.46138561378362963
128	0x3fea6878fa1ecfd6	0.8252529988444575
129	0x3ff1054bb8c0d063	1.0637929169579585
130	0x3fb3cb3d400c2e01	0.07731993497525737
131	0xbfe63a03f0465b5b	-0.6945819561832239
132	0xbfe793d0790a086b	-0.7367937435194681
133	0x3ff40247808fefd6	1.25055647105818
134	0x3ff5c59a0a30ba3a	1.3607426069317072
135	0xbff1c310f5e30ce6	-1.1101235966642036
136	0x3fd4ddbb7cd8c5a6	0.3260334700781534
137	0xbfcac7ce29e9e284	-0.20922257467806926
138	0x3f97c7b500d95440	0.023222759415450378
139	0xbff364b5cb1637c6	-1.2120874341085126
140	0xbfe36e4bda6edf2f	-0.6072139040252064
141	0xbfd9054fcb646ee2	-0.3909492002728553
142	0x3f81b584f1c7399d	0.008647001865850263
143	0x3ff2ce1d0d5271f3	1.175320674933684
144	0xbfd0050cd695cf45	-0.2503082366522345
145	0x3fe1833500a2acfd	0.5472664844905065
146	0x3f88bd794c1a640c	0.012080142626745193
147	0x3fb219241da45094	0.07069612239530648
148	0x3f9505b6edd9e8ab	0.02052961184242778
149	0xbfcd2fe92adbd80d	-0.2280246218940082
150	0x3ff2b34968f7c781	1.1687711811359522
151	0x3fe539637ef2c9f9	0.6632554511509731
152	0xbff7ffa6f13d33ad	-1.4999150679970896
153	0xbff7f03b2f995804	-1.4961501941047581
154	0x3facff1b0ce70d8e	0.056633801770227796
155	0xbff40fa095202ffa	-1.253815252802268
156	0xbffc4be4762a6320	-1.7685284248202109
157	0x3fc018796ab9eaf7	0.12574689589731466
158	0xbffc7f6a4fc4384e	-1.7811072460058486
159	0xbfc2159da8b6eac4	-0.14128466356290492
160	0x3fe95e9fbeaae9a1	0.7928007816292856
161	0x3fc8a6c4a2a8b1f8	0.19258935873348526
162	0x3fe4c95681dd2313	0.6495773826983132
163	0xbfe751193f0230d7	-0.7286497336040395
164	0xbfe82dcf7b56025a	-0.7555920990854006
165	0x3ff3d29dd82f895e	1.2389200634721287
166	0xbff3b02bd3a37d6a	-1.2305105464109496
167	0x3ffae89d287f5d5d	1.681790502732688
168	0x3ff4ecd12b556943	1.307816666862508
169	0x3ff8a4a475279621	1.540195901522914
170	0x3ff5bb725057d1ac	1.3582633150482293
171	0xbfe5786d33cc16b3	-0.6709505092300873
172	0x3facb63bc85c080d	0.0560778314666238
173	0x3fe197cf0fd56c86	0.5497813519717887
174	0x3f8c7b040ceee6e2	0.01390650906056429
175	0x3ffe5a7cc0b2b616	1.897091629721563
176	0x3fd1750f3144265a	0.27276973544267025
177	0xbfaaa03599f310bf	-0.05200355057016414
178	0x3ff0e6a006bebd78	1.0563049567680007
179	0xbfe2e45910522c66	-0.5903745001572929
180	0x3fe6131d31331aeb	0.6898332558565391
181	0xbfdad39ed55f6e90	-0.4191662868231356
182	0x3fb4554bdda0811f	0.07942651902022078
183	0xbfef7bfdc154d94a	-0.9838856483463954
184	0x3ff664119f2160f3	1.3994308677702605
185	0x3ff33a53da891697	1.2017401253264433
186	0x3fc167537cd641c8	0.13596576304963848
187	0xbfadf1a725d486ee	-0.058484290473883024
188	0xbfe3d74275dbd3c7	-0.6200268079688777
189	0xbfe7d09e72657f41	-0.7442161783510316
190	0xbff2965bdef76d1e	-1.1617087087277649
191	0x3fe316f26b12b242	0.5965511409063498
192	0x3fe346863fa1e8d5	0.6023589365788903
193	0xbf86791e29abe74e	-0.010973201414788438
194	0x3fd6b3f9fecdffa2	0.35473489650029866
195	0x3ffe47dca7f375de	1.8925444183909046
196	0x3ff61cf010a6a068	1.3820648813653182
197	0xbfbf7bcb2e0668da	-0.12298269151361599
198	0x3fff9dc1c5cb42a3	1.9760148741080819
199	0x3fdbb88c15c45c9e	0.4331388676232083
200	0x3fc097b4ceb0c750	0.12962970821677766
201	0xbff7e9820733fe9f	-1.4945087701197861
202	0x3fb94120ff211e5b	0.09865003803963061
203	0xbfc0f805de7d0eaf	-0.13256905902573154
204	0x3fd7a35466e59029	0.36934385345944293
205	0xbfc48828a939abd9	-0.16040523779824303
206	0x3fcb7be82e4db66a	0.2147188402263283
207	0xbfc9fd4c18252854	-0.2030425184150909
208	0x3fca0b3c23d4aebf	0.2034678626017605
209	0x3ff2c1faab22a0df	1.1723581967326522
210	0xbfd6a6048f382ff9	-0.3538829229953531
211	0xbfaa141ee600fc2d	-0.050934758736268605
212	0xbfe4d2bf6c930df0	-0.6507260437578548
213	0xbfbe8d51b12ac878	-0.11934385848397422
214	0xbfee953c7c30ea85	-0.9557173181159021
215	0x3ff54fdb8548ba9a	1.3319964605722476
216	0x3fe5664a6f05c73f	0.6687366646203613
217	0x3ff6e4c029ab0bd3	1.4308473231947019
218	0xbfe3bfa5a17bc43f	-0.617144408604993
219	0x3ff0637013451478	1.0242768051841988
220	0x3ffb3b0899eae02e	1.7019124996568382
221	0xbfe7249d6731fd05	-0.7232195869000014
222	0xbfe9310f0fe84db8	-0.7872386274997814
223	0x3fd5e54ddfe3db06	0.34212061752570866
224	0xbfe4737728ea4a74	-0.6390949057698223
225	0x3ff77fcbd289e245	1.4687002395786675
226	0x3ff940edc80c06ff	1.5783517660460686
227	0x3fd4bb1907c92170	0.3239195419341945
228	0xbfcfab9c29f57753	-0.24742462204715795
229	0xbfe78a018fd5e6bf	-0.7355964478767517
230	0x3ff45493a106b8ab	1.2706486024940584
231	0x3fea350e487a9436	0.8189765372850448
232	0xbff84a5e34530606	-1.518156246558989
233	0x4007e396048975f8	2.9861259798478805
234	0xbfd4b251d2926f85	-0.3233837658278776
235	0x3fbf2544a1e84e20	0.12166241600817118
236	0xbfb77fb7ed2f9b4e	-0.09179257908509195
237	0xbfd7cfb75277f117	-0.3720529847485223
238	0x3ff8d4fb79566172	1.551997636770548
239	0xbfcdc325a45c0f87	-0.23251791501399685
240	0xbfea4b690fd83972	-0.8217053708520281
241	0x3fe28056f3790c54	0.578166461499118
242	0x3fd610a5d0a5bbe0	0.34476609588358365
243	0x3f9e63c3a50e0ca3	0.02967744536318818
244	0xbfd786bf6e0258eb	-0.36759935134013116
245	0xbfd98cae48d15bad	-0.3992114745246294
246	0x3fc3791f08d8ffd3	0.15213382656111082
247	0xbfd66f8727fd0fc2	-0.3505571260941417
248	0xbf9119b34c04a929	-0.016699601664336292
249	0xbff41961650daa46	-1.2561963984868654
250	0x3fe40668faa39fb6	0.6257824797912608
251	0x3ff7f139e6707071	1.4963931085140099
252	0xbfc4b7b32263d951	-0.16185607127381244
253	0x3fb4637a166dab19	0.07964289710586704
254	0xbff17d857b56fcff	-1.0931448762856346
255	0x3ff3191deec2ef9f	1.1936320616359593

bias f8 [1, 64]
0	0x3fd4dedba57804e8	0.32610217246117523
1	0xbfdb7e6be33321ed	-0.42959115207170734
2	0x3fdeacfb1387588e	0.479307908125869
3	0xbfe909ddbfa835eb	-0.7824543708135797
4	0x3fb498a8e01edea0	0.08045440169996221
5	0xbfe83c4da9660510	-0.7573612507405034
6	0xbffb452fbc9b0ed1	-1.7043912284288363
7	0x3fd1f5262497eb9e	0.28058770726755167
8	0xbfec40beb1eb90b5	-0.8829034304622129
9	0xbfd346f7bf9a950c	-0.30120652877151666
10	0xbfd9a9011cbd88e2	-0.4009402065913844
11	0x3fd9acafde02e690	0.4011649768905068
12	0xbff1ee30aaccaa61	-1.1206518813948139
13	0x3fea70289e9cb37f	0.8261912439244127
14	0x3fe59ea866698367	0.6756174087750936
15	0x3ff8bd30e81e15b3	1.5461892191973277
16	0x3ff29460b8866a22	1.1612250526437795
17	0xbfc4e87daec150cc	-0.1633450606628969
18	0x3f9f0b575c83a2b5	0.030316700955981008
19	0x3fe704417d5872ff	0.7192695091394795
20	0x3ff9fb382506d52f	1.6238328405718894
21	0xbfeea89905e71fe8	-0.9580807795800839
22	0xbff5bf4994b0895c	-1.3592010315120069
23	0xbfc3745fa467495b	-0.15198894050133557
24	0xbfe503ed4458c9bc	-0.6567293486498822
25	0xbffda0bf7a531591	-1.8517451074888849
26	0x3fe494abd9bcd238	0.6431483509719049
27	0xbfb7ae68b336bde1	-0.09250501990640415
28	0xbfe05cf648065464	-0.511347904847423
29	0xbff206e218d40fe7	-1.126680466638385
30	0xbfef50fe0833da17	-0.9786367569166171
31	0xbfe0c86ea82bcc71	-0.5244668278304642
32	0xbfe07c95d2e62112	-0.5152081603164638
33	0x3ff38dc647c42c13	1.2221129229899403
34	0xbfc5646090e1879b	-0.1671257693697584
35	0x3ff982734e82d26d	1.5943482462727403
36	0xbfed06fafbee3213	-0.9071021004215843
37	0x3fc5a0b9de07d2ad	0.16896746960960254
38	0x3fa9b1ab4e8aabe6	0.050183633172615136
39	0x3fe2639894f0a886	0.5746577176080485
40	0x3ff655c56f5db816	1.3959402418363474
41	0xbfebb33bf40a0102	-0.8656291738880386
42	0x3ff117edec5966a0	1.0683421356574527
43	0xbfd3f6e71d0b1e08	-0.31194475017807166
44	0x3fb818fb50d7fea6	0.09413119052623617
45	0x3fe04c799d78ac36	0.5093353343594405
46	0x3fac92e6bdd39fba	0.05580826823444292
47	0xbfe8057e2765db6f	-0.7506705064287028
48	0x3fd144e9de40bad4	0.26983114914302786
49	0xbff2bc7a1b9d0e39	-1.1710148886348988
50	0xbfeb138ee0ceee47	-0.8461374655520978
51	0x3fe04bdcbaff1aa2	0.5092605259204286
52	0x4007037b025ef5ee	2.876699465296716
53	0x3fc0b1cfe1e5a9c6	0.13042639284260654
54	0x3ff121f675c35585	1.0707916832082855
55	0x3fe7e34ebe83199c	0.7464975090922965
56	0xbfe6c4905ec00302	-0.7114946222864946
57	0x3ff3f4a8f4a5732a	1.2472314411636014
58	0xbff04d889ba07fff	-1.0189291075876097
59	0x3fe7c6f6172d3bbc	0.7430372669858722
60	0xbfea72dc6b0554fa	-0.8265211191416306
61	0xbfc878845ddabb8d	-0.19117788870559274
62	0x3f490fda535f4331	0.0007648292582818958
63	0xbfff5c6e41b7b5a3	-1.9600660864919994
